01_RL/02_DDPG/Trained_Models/DDPG_Pendulum-v0/actor.pth (torch_old, 489846 bytes, 5 tensors)

l1.weight f4 [400, 3]
00000000: 3e74 cb3e 0f89 3ebe ab2a 91be fdbd f8bd
00000010: c327 843f def9 e63d eb4b 563e 66ba 6dbf
00000020: 1f02 d2be d09c c93e a921 22c0 5a7f 14bf
00000030: 05da 45bf 7a71 35bf 1a27 6fbe 41b7 cdbe
00000040: dfe6 8cbf 61dd 803d 53b1 893e 1332 e0bf
00000050: 3386 15bf accc d8be e72e b7bf d9c1 94be
00000060: b118 133f df88 b8bf 010e 303e c80b 34bf
00000070: 3cc5 c9be 32be 503e c429 84bf 6ebb 84be
00000080: fb52 823e 2a47 a3bd c2b7 833f 55c7 6d3b
00000090: 537e 89be 52d3 803f d66c c83d c10a 00bf
000000a0: 4d3a 15be b763 2bbe f3be 263e 11a1 f3be
000000b0: e853 25be b274 733e 07e4 dd3e bb62 69be
000000c0: b395 d63c 8d54 20bf cb91 38be 1dd1 03bf
000000d0: d909 ac3f de45 8b3e d3f7 9dbe 0d79 62bf
000000e0: 75f2 edbd cc65 60be cfa9 f9bf 9d83 5cbe
000000f0: f8aa d4bd 55e3 06c0 0738 abbd 0fd2 1ebe
00000100: e3be bdbf 9600 ce3d bafb 2c3f 7166 efbe
00000110: 2184 d6be 3a37 6abf 7a2c a93d 03dd afbd
00000120: 446a a73e cd95 30bf 14a5 bcbe b46c 713f
00000130: 4a3f 16bf a0c6 08bf bc05 f73e d6fb 843f
00000140: 1a0c 913e 8719 4cbf babb 8f3e 1e3d 5f3e
00000150: 55e8 49bf 6ad9 abbe 923d 5c3e 8d0f 97be
00000160: 5e98 ddbf b11c 96be c723 61be 4fa0 ffbf
00000170: b95e 26be a361 58bf 1f34 f3bd e709 ccbe
00000180: 5366 60bf c234 5abe 0910 923e ef9a 67be
00000190: e318 ffbf 96ba 81be dc39 993d 523f 39bf
000001a0: 61dc 83be 3cc2 dcbe 0442 a3bf 41df 91be
000001b0: 1156 b33e ad55 b3be 9ec0 9abe 3ad4 03bf
000001c0: 70cf fcbf 8315 00be 1712 80bd b99c c8bd
000001d0: 3b47 5b3b 958e e7be a728 7b3f b090 70b7
000001e0: 693a 0cbf 2797 fb3e 7fd4 023e fffd dd3e
000001f0: 2f26 373f 55a5 42be e5f4 aa3e d954 013c
00000200: d726 2abe 4e4d 07be 7110 013e 7af7 953c
00000210: c02b 943c fcc4 1a3e 8004 8dbb 0ece 80be
00000220: 2503 dbbf bca0 54be f827 f9be dead 903f
00000230: d6c0 6f3e c140 a1bd 3417 7a3f bc87 e5bc
00000240: ce8d 87bd daf9 6a3f 16eb 3ebd 2802 0dbf
00000250: 52aa 873f e104 643e 6d70 39be c46c adbf
00000260: 7ca4 5cbe 95f2 3dbd 3e2b 843f f9ea 2d3e
00000270: 6d35 f53e 601f eebe fe3b ce3d db10 fabe
00000280: 5632 a23f a684 853e a7aa 6e3e 4128 503e
00000290: 441a 6d3e cf49 b53e 17e4 2c3e 6da0 3a3e
000002a0: f2a5 40bf 5d52 35be 4b3f a03d 8f9a a6bf
000002b0: 53f7 e0be 382d cabe 5410 50bf dba2 be3e
000002c0: 7c74 ae3e 9847 77be 928d 5abf a6b9 74bd
000002d0: 48c3 8fbf fe19 b7be 67bf 80be 5394 103f
000002e0: 51bb b8be 2f97 ee3d 1d7b 23be 4c55 b93f
000002f0: 2972 ff3d f82d e9be 4d83 933f cb5a 6b3e
00000300: e637 093f d703 963f fca5 0f3f 1847 e33b
00000310: 1144 833e 206b 52bc d3aa 86bf 5490 1abf
00000320: 43c2 c4be 5808 53bf 75be 283f 903f 8a3d
00000330: 458d 1c3f 3cea e13e 95c1 923e 5d01 d0be
00000340: ad7d 1e3d e8f5 febd 3e37 a4be 9891 443f
00000350: 07c2 1f3e 5bb6 f8be 3749 9abf c29c 66be
00000360: 0214 80be b4d2 d6bf 5dae 74bd c80f eabe
00000370: af90 d6bf 08dd b5be 2bdb 9e3d 582f c9be
00000380: d28f 27be acc3 35bf 3dab 8e3d 2398 653d
00000390: 917d ba3e 30e0 f03f 5dd0 5d3f faf6 90bf
000003a0: 014b 94be b239 523e 439d 93bf ed4d 1fbf
000003b0: a20a 6ebe aa83 e33b 2390 853f f1d1 2f3c
000003c0: 0bdd 15bf b521 be3f fdd5 1c3e b7b7 8c3e
000003d0: 61b2 81bf c828 5abe db21 013d cf55 d63d
000003e0: 9e9a 75be 925e 083f 1a55 963e 8a2e a5be
000003f0: 7a99 49bf 57ce 93be 1cd9 253e 391a 663d
0.39737123 -0.18606971 -0.28352866 -0.121456124 1.0324634 0.11278127 0.20927398 -0.92862546
-0.41017243 0.3937745 -2.5333045 -0.58006823 -0.77285796 -0.70876276 -0.2335476 -0.40178874
-1.1007956 0.06292225 0.268931 -1.7515281 -0.58407897 -0.42343652 -1.4311188 -0.29054144
0.5745955 -1.441677 0.17192842 -0.70330477 -0.3940829 0.20385054 -1.0325246 -0.25924248
0.25453934 -0.07972558 1.0290453 0.0036282141 -0.2685419 1.006449 0.09786384 -0.5001641
-0.14573021 -0.16737257 0.16283779 -0.4758382 -0.16145289 0.23774984 0.43338034 -0.22791569
0.026194429 -0.62629014 -0.18024366 -0.51490957 1.3440505 0.27201742 -0.30853137 -0.8846596
-0.11618511 -0.21913832 -1.9504946 -0.21534581 -0.10384172 -2.1076252 -0.08360296 -0.15509818
-1.4823879 0.100587055 0.67571604 -0.46757844 -0.4189768 -0.9149052 0.08260436 -0.085870765
0.32698262 -0.6897858 -0.36844695 0.9430649 -0.5869032 -0.5342808 0.48246562 1.0389354
0.28329545 -0.7972645 0.28072912 0.21800658 -0.78870136 -0.3356431 0.21507862 -0.29504052
-1.7312124 -0.29318765 -0.21986304 -1.9970797 -0.16247071 -0.8452398 -0.11875176 -0.39851305
-0.87656134 -0.21309188 0.2852786 -0.22617696 -1.992947 -0.25337666 0.07481739 -0.72362244
-0.25754073 -0.4311694 -1.2754521 -0.28490642 0.350266 -0.35026303 -0.3022508 -0.5149571
-1.9750805 -0.12508206 -0.0625345 -0.097955175 0.0033459205 -0.4522597 0.98108906 -1.4338802e-05
-0.54776627 0.49138758 0.12776373 0.43357846 0.7154264 -0.19008382 0.33389965 0.007893764
-0.16616379 -0.13213083 0.12603928 0.018306483 0.018087268 0.15114206 -0.004303515 -0.25157207
-1.7110335 -0.2076444 -0.48663306 1.130306 0.23413405 -0.07873679 0.97691655 -0.028018825
-0.06618844 0.91787493 -0.046610914 -0.55081415 1.0598853 0.22267486 -0.18109293 -1.3548818
-0.21547121 -0.046373922 1.0325696 0.16984166 0.47892323 -0.46508312 0.10070036 -0.48840985
1.2671611 0.26077765 0.23307286 0.20327856 0.23154551 0.35407874 0.16883884 0.1822526
-0.7525321 -0.177072 0.07824572 -1.3015918 -0.43938693 -0.39487624 -0.81274915 0.37233624
0.34073246 -0.24148405 -0.8537227 -0.05974736 -1.123147 -0.35762018 -0.25146028 0.56476325
-0.3608041 0.1164993 -0.15964933 1.4479156 0.12472946 -0.45542884 1.1524445 0.22983854
0.5360092 1.1719922 0.5611265 0.0069359653 0.25637868 -0.012842923 -1.0520881 -0.6037648
-0.3842946 -0.82434607 0.65915614 0.06750405 0.6115306 0.4412402 0.28663316 -0.4062604
0.038694073 -0.12449247 -0.32073396 0.7678466 0.1560136 -0.48576626 -1.2053593 -0.22520736
-0.25015265 -1.6783051 -0.0597366 -0.45715165 -1.6762904 -0.35520196 0.07756647 -0.39293933
-0.16363457 -0.71001697 0.06966255 0.056053292 0.36423925 1.8818417 0.8664606 -1.1325371
-0.28963473 0.20529822 -1.1532367 -0.6222828 -0.23246244 0.006943186 1.0434612 0.010731206
-0.5854041 1.4854037 0.15316005 0.27483913 -1.0132562 -0.2130462 0.031526428 0.104655854
-0.23984763 0.532693 0.29361802 -0.3226207 -0.7874981 -0.28868362 0.16196102 0.05617735

l1.bias f4 [400]
00000000: f85c babe 11e7 8dbe 7607 03bf da8e 58be
00000010: 56cc 08bf 7ef6 1fbe 97e4 f9bd 980d 21be
00000020: 20b7 cebe 79fb b5be 5ec5 1fbf 300a 4a3d
00000030: 950b 3bbe f01b d5be 506b fdbe c80f 39bf
00000040: 3a7d 84be d9b8 b5bd 85de d23d 5344 efbd
00000050: 1de0 6ebe 245b 44be 2cb1 00bf 030e f03a
00000060: 7cbf 23bf fb09 3bbf c3b5 0abf 2f1d 9f3e
00000070: 0f0b eabe 1649 a5be 0ec4 14be c0f6 47bf
00000080: 385b bebe aeab f7bd 4ee5 8ebe 6124 c2bd
00000090: a0a3 ecbe 2961 423e 9027 3cbe 0cec 06be
000000a0: d830 8c3e 0283 34be c69b 62be 5d17 1dbe
000000b0: 0ddc fabe 3c08 b43e 0763 3ebc ba1a 2abe
000000c0: cb56 f3bd e15b 793d f4ba 60be 552c a8be
000000d0: 686f 1dbf d0a4 a8bd 42a7 62be b220 86be
000000e0: e0aa 16be de92 8abf 1c7f 57bf 39af f23e
000000f0: eb72 f9be 4986 cabe b25c 8abe a1d9 86bd
00000100: 189d f9be 58db c3be 94c3 42bf 5f6d 213e
00000110: dbfc 93be dced 00bf fff8 c5bc a556 a5bc
00000120: a6e4 7abd 5d5d 4cbe 038a 9fbe 0ea0 ee3d
00000130: d158 a7bd d364 99be 796c f0be 4983 92be
00000140: 736a 1f3e 0b54 653d 4f70 d8be 0894 c9be
00000150: 54b8 66bd cd24 8ebe 6d5a a3be d0a4 34bf
00000160: ae9d ed3e b5ac b0bd 0d3e 5ebe 3135 e8be
00000170: 98ca 00bf fd4d 36bf bc5f 443a b31d 2cbf
00000180: e52f 9dbc 3a04 1a3e 5fb9 9bbe 6e25 f6be
00000190: 6f5c 7dbe 122c 7bbe 29c9 12bf 256d 1fbf
000001a0: 8881 81be e5aa ad3a 931b e5be 6c35 56be
000001b0: 7fea 13bf 9908 abbd 6133 9fbe e6a2 1abe
000001c0: 36e1 0abf 225f 87be ca09 c0be 88d2 d8be
000001d0: 9c1d a0be 2810 f4be 81ef 4abf 828d 8cbd
000001e0: e2bb fabe 7107 d7be c000 20be e33e b9be
000001f0: c5b9 f9be 2776 d0bb 65ae ee3c eb4d 06be
00000200: 324c 17be aa5b 84be 3d04 13bf 8250 0abe
00000210: 1a86 1ebe 3b0a aabe a0fc 62be 23e1 60be
00000220: 02bd 79be 877d 9abe 89db e33d 9c2a 70bd
00000230: 1ac8 893e a066 8cbe 167d a1be e0ba d8be
00000240: fd96 e9be a2ba abbe 9557 febd 44d0 1ebf
00000250: 95f0 1abe 3672 f2bd f2e1 c9be 6741 bfbe
00000260: 237b 99be 6fbe cdbe 9330 d8be 5390 87bd
00000270: aaf7 89be 3620 983e 39ef d9bc a9c5 a9be
00000280: 61bc 983d 7dbd acbe 285b e4be 94c5 a8be
00000290: ef8a e9be dcd1 103b 1c89 eebe 1ea5 39bf
000002a0: 28da 85be 8897 68be bf85 cbbe 8dba 83bd
000002b0: ce85 8abd b3dd 31bf 621d f7be ca85 bf3d
000002c0: 8583 f2be 8a3d 22bf 741c c7bd 49e4 3f3d
000002d0: 7c00 e4be b440 c43c 2d5f 4dbe 9060 a1be
000002e0: 39dd 45bf 268e 87be 37b4 15bf 6da1 9ebd
000002f0: b4ea 2f3d 8031 00bf d078 013c 57dc 8bbe
00000300: a55f 73be 3bd9 6d3e 3b38 bebd 36bb 1bbe
00000310: 958a 2cbe 27a8 15bf 0c2f 9f3d 5d6b 20bc
00000320: 4155 f8be 70d3 33bd 32f5 88be 4bc9 9d3e
00000330: 90cf 113d 9256 f1be 28fe 11bf a387 2ebf
00000340: 08ee 083e 55f4 70bd 4936 4e3e 5a6b 08be
00000350: d825 84be 3bff 16bf 2cc4 403d fd14 d5be
00000360: 9790 b63e 1dee e1bd 424f f4be 76c0 39bf
00000370: abda 46bb d64b 3f3c 0359 c1be a3d1 79be
00000380: 8a44 a83c a41a 86be 91bd a9be 593f 0ebf
00000390: ca17 9bbe dbbb 723b a6ee aebe 0313 20be
000003a0: 13ee 2fbe 5822 86be a5c5 bcbe d727 97bb
000003b0: 8de2 82be 231f ffbc 3235 2abc fa37 9fbe
000003c0: 2170 03bf 7cfa 78be 0539 593d c75e 0c3d
000003d0: 6d47 d43d b8fc f9be c5f9 4cbe 2a86 14be
000003e0: 2978 21bf 9fcd 62be 8e5b 7b3b 9590 61be
000003f0: 60c2 5cbe b9d0 19bf 4e6b a4bd 4efe 75be
-0.36399055 -0.27715352 -0.5118326 -0.21148244 -0.5343679 -0.15621373 -0.12201803 -0.15727842
-0.40374088 -0.3554342 -0.62410533 0.04932612 -0.18266137 -0.41622877 -0.49495935 -0.72289705
-0.2587679 -0.088731475 0.102963485 -0.11682954 -0.2332768 -0.19175392 -0.5027034 0.0018314723
-0.63964057 -0.73062104 -0.54183596 0.31076953 -0.45711562 -0.32282323 -0.14527914 -0.78110886
-0.3717897 -0.12093292 -0.2790932 -0.09479595 -0.46218586 0.18982376 -0.18374467 -0.13175982
0.27381015 -0.176281 -0.22129735 -0.15340944 -0.4899601 0.35162532 -0.01162029 -0.16611758
-0.11881789 0.06087864 -0.21946317 -0.32846323 -0.6149812 -0.082345605 -0.22134116 -0.2619682
-0.14713621 -1.082607 -0.8417833 0.4739931 -0.48720488 -0.39555576 -0.27023846 -0.06584478
-0.48752666 -0.38253284 -0.7607968 0.15764378 -0.2890385 -0.50362945 -0.024166582 -0.020182917
-0.061253212 -0.1995749 -0.31159982 0.11651622 -0.08171237 -0.29959735 -0.46957758 -0.28615788
0.15567951 0.055988353 -0.42273185 -0.3937075 -0.056328133 -0.27762452 -0.31904927 -0.70563984
0.46409363 -0.08626691 -0.21703358 -0.45353082 -0.50309134 -0.7121275 0.0007491072 -0.6723282
-0.019187877 0.15040675 -0.30414864 -0.48075432 -0.24742292 -0.2452853 -0.57338196 -0.62275916
-0.25294137 0.0013249783 -0.447476 -0.20918816 -0.5777969 -0.08351249 -0.31093886 -0.15101203
-0.54249895 -0.26439768 -0.37507468 -0.42348123 -0.3127259 -0.47668576 -0.79271704 -0.06862928
-0.48971468 -0.41997865 -0.15625286 -0.3618079 -0.48774543 -0.006361741 0.029135892 -0.13115661
-0.1477516 -0.25851184 -0.5742834 -0.13507274 -0.15480843 -0.3321093 -0.22166681 -0.21960883
-0.24388507 -0.30173895 0.111258574 -0.058634385 0.26910478 -0.27422047 -0.31540745 -0.42330074
-0.45623007 -0.33540827 -0.12419049 -0.6203654 -0.15130837 -0.1183819 -0.39430195 -0.37354586
-0.29976758 -0.40184352 -0.4222456 -0.066193245 -0.26946765 0.29712075 -0.026603328 -0.33158615
0.074578054 -0.33738318 -0.44600797 -0.3296324 -0.4561381 0.0022097742 -0.4658898 -0.72517574
-0.26143003 -0.22714055 -0.39750478 -0.06432066 -0.067638025 -0.6947891 -0.48264605 0.0935169
-0.47365966 -0.6337515 -0.09722224 0.04684857 -0.4453162 0.023956634 -0.20055838 -0.31518984
-0.77290684 -0.26475638 -0.5847811 -0.07745633 0.04294844 -0.5007553 0.007902339 -0.27316543
-0.23766954 0.23227398 -0.09288069 -0.15208134 -0.1684974 -0.58459705 0.07772645 -0.009791222
-0.48502544 -0.043902814 -0.2674957 0.30817637 0.035598338 -0.4713636 -0.57028437 -0.68175715
0.13372052 -0.058826763 0.20137896 -0.13322201 -0.25810122 -0.589832 0.047062084 -0.41617575
0.35657188 -0.11031745 -0.4771672 -0.725593 -0.0030342739 0.011675796 -0.37763223 -0.24396376
0.020540494 -0.261922 -0.3315244 -0.5556541 -0.30291587 0.003703824 -0.3416645 -0.15632252
-0.17180662 -0.26198077 -0.3686954 -0.0046129036 -0.2556347 -0.031142777 -0.010388659 -0.31097394
-0.5134297 -0.24314302 0.053032894 0.034270074 0.10365186 -0.48825622 -0.20017155 -0.14504305
-0.63073975 -0.2214875 0.0038354131 -0.2202781 -0.21558523 -0.6008411 -0.08028279 -0.24022791

l2.weight f4 [300, 400]
00000000: 8c3a 8d3c 7082 4b3c 0e19 9abd df4a 283c
00000010: 668d f93c 3994 5bbd 676e 023d 1061 00bd
00000020: e97a e5bc 842f 263b 37d9 fc3b ae10 50bd
00000030: 44ca 783c 09aa 2b3d 2e1d ba3c 3207 7b3c
00000040: d830 5dbd 6f7a 18bd 56f7 fb3c e0e9 fdbc
00000050: 00d2 f3bb 5d7b 063d 1ef9 bc3c 8271 a23c
00000060: 0ef9 183c 4470 db3a a7cf 5ebd eb24 32bd
00000070: d98e 8cbb d826 223c 5bd1 7abd 2026 e73b
00000080: 2597 0dbd 29af 0a3c b99c a8bc 951d 9f39
00000090: 5c5c 34bb 2f3d 5dbc 4646 58bd d3ea 3ebd
000000a0: 9f2e 9dbc e8de 1a3d e211 e8bc 5380 f9bc
000000b0: 3022 3cbb a44c 02bd a0d5 d4bc b6d1 fe3c
000000c0: 4192 8abb a7a0 eabc de7c 4dbc fd4d 57bd
000000d0: 0d64 9abc b7ab 3dbc 9b4c 49b9 5648 adba
000000e0: f657 1bbd 161c 183d 01be 0dbd 052f efbc
000000f0: 4aa5 cf3c ac54 a93c 7a7e eabc 474d c83c
00000100: 2646 883c 7b54 5abc db2e 883c edec f2bb
00000110: 2da2 d03c c37d 1d3d 01c9 19bd 831a 0e3d
00000120: dce4 aa3c d959 213d fe85 fa3c 9e1b 683c
00000130: 0623 013d 47de c33b 7f48 203d e9b4 393d
00000140: 9057 4ebd 62ce 0fbd 2e3d 023d 2655 bfbc
00000150: e7b9 093d aeca 23bd 43da 24bd 1500 863c
00000160: 378a bdbc 4a31 e23b ad47 22bd f5af 9dbd
00000170: 801a bb3c 08a2 1d3c c6ce 91bc 5d37 f03c
00000180: cc40 bbbb 540e ea3c a6df 04bd ab19 47bd
00000190: 61d5 053b 4b44 923c 7ce8 26bc b734 323c
000001a0: edcf 663c 8667 c0bc 58a4 54bc 7659 18bd
000001b0: acad d43c c398 05bd 7a73 84bc a211 30bd
000001c0: 3059 41bd 001b 10bd b4d3 14bd 0b05 27bb
000001d0: fb88 6ebc 7d8e ab3b 0c4d 873c fbf0 b9bc
000001e0: 47d4 87bc fcdc e53c 0cbd 1cbd 728f b53c
000001f0: cf2a 0c3d 3efa df3c 3a9d cb3c 4730 ecbc
00000200: a10f 013a 113e 88bc 3c8c 093d b3c3 c33a
00000210: c7c2 d3bc 6a99 d0bc d435 ed3c cdf7 60bd
00000220: 4af5 03bd 6254 d63b 0e6a 86bd 83a6 cabc
00000230: 8f52 903c bd35 e03a 4833 b3bc 273c 293d
00000240: 1e19 2b3d 36fc 0e3c 763a 14bd b85e 3ebd
00000250: 62ae 8cbd f4cf 2c3c 4c92 d43c d504 13bd
00000260: 1046 26bd 08ba 6c3c 3b94 3b3c 6805 3dbd
00000270: bea7 89bb a3c3 c6ba bddc da3c 7a5f 30bd
00000280: f165 f13c 64b7 0c3d 1863 0d3d 7440 f23c
00000290: 43a2 19bc 26ff 8d3c 1fe9 053d 3cef 483c
000002a0: c42d 26bd 8825 a63c eebb 383c 7956 d0bc
000002b0: 8236 63bd 2dfd 093d d262 11bd a4a2 913c
000002c0: e092 83bd 653e eb3c 5fe1 1abc 7d9f 1dbd
000002d0: 0afb 36bc 5fb5 97bc ed49 3bbd 065a 2dbd
000002e0: 87b2 63bc 8fe0 5ebc 9f1e 953c 8610 ab3c
000002f0: 5f66 86bc b896 243d d540 07bd e16c 813c
00000300: 7cfb 6abb 8f7e debc 658b 09bd 15bf e03c
00000310: 7087 44bd a4cd 113d f8f1 8d3c 3fd4 963c
00000320: 11b5 1bbc 2f5b 273d e1a9 703c 902d 62bd
00000330: 5a01 1ebc a915 1bbb 70e4 59bd bfef 563b
00000340: 9643 06bc dd31 26bd ddcd 5438 8bc8 febc
00000350: b33f 213d 5820 5f3b 3a02 073d f0c9 d33a
00000360: c898 533a 96f0 d7bc 26a1 e43c 8ce8 d0ba
00000370: 7381 20bd 557a b3bb 7b0f dd3b 9939 0f3d
00000380: 98cc 533b 5d0e 8e3a d30e 1d3d df15 4e3c
00000390: f00b 213c 1c98 c7bc ece8 29bd 5df0 7fbd
000003a0: 26c4 5bbb e913 25bc 052d 743c 3a32 0fbd
000003b0: d341 40bc 1b98 1c3b 33da 51bd 7d1e 60bd
000003c0: 86d9 5ebc f53d 8abd 1186 7abb 55c1 4f3c
000003d0: a614 1fbd de27 f4bc 1730 a4bb 8d71 6bbc
000003e0: bb55 203d 808a 40bd 82ed e7bc 3332 26bd
000003f0: 5879 113c 9351 81bd a68a 3c3c 0134 1fbb
0.017239831 0.012421235 -0.0752431 0.010271757 0.030462932 -0.053608153 0.03184357 -0.031342566
-0.02801271 0.0025357911 0.0077163237 -0.050797157 0.015184943 0.041910205 0.022718992 0.01532154
-0.05400166 -0.037226137 0.030757587 -0.03099531 -0.0074408054 0.032832492 0.023068007 0.019829515
0.009336723 0.0016741832 -0.05439725 -0.04349224 -0.0042894897 0.009896956 -0.061234813 0.0070541054
-0.03456797 0.008464613 -0.020582544 0.00030348884 -0.002752087 -0.013503357 -0.052801393 -0.046610665
-0.01918727 0.037810236 -0.02832884 -0.030456698 -0.00287069 -0.03181137 -0.02598077 0.031105857
-0.0042288606 -0.028641058 -0.012541978 -0.05256461 -0.018846536 -0.011576585 -0.00019197392 -0.001322041
-0.037925683 0.03713616 -0.03460503 -0.029197225 0.02534737 0.020670258 -0.028624762 0.024450911
0.016635012 -0.013325806 0.016623905 -0.0074134977 0.025467956 0.038450014 -0.037545208 0.034693252
0.020861082 0.039392326 0.03058147 0.014166741 0.03152754 0.0059774253 0.039131638 0.045338545
-0.050376475 -0.03510893 0.031796627 -0.023356032 0.033624556 -0.039988212 -0.040247213 0.016357461
-0.023137195 0.0069028484 -0.039619137 -0.07699577 0.022839785 0.009621151 -0.017798793 0.029323274
-0.0057145115 0.028571285 -0.03243985 -0.048608463 0.0020421373 0.01785483 -0.0101872645 0.010876826
0.014087659 -0.023486864 -0.012978636 -0.03719469 0.02596172 -0.032616388 -0.016168345 -0.042985566
-0.047204196 -0.035182 -0.03633471 -0.0025485184 -0.014559026 0.005235492 0.016516231 -0.022697916
-0.016580714 0.028059475 -0.038266227 0.022163127 0.034220513 0.027341004 0.024855245 -0.028831614
0.00049232884 -0.016631158 0.033581004 0.0014935642 -0.025849713 -0.025463779 0.028956331 -0.05492382
-0.032216348 0.006540821 -0.06563197 -0.024737602 0.017617492 0.0017105859 -0.021875039 0.04131713
0.041772 0.008727124 -0.036188565 -0.04647705 -0.068691984 0.010547627 0.025948666 -0.03589328
-0.04059416 0.01444865 0.011448915 -0.046147734 -0.0042009046 -0.0015164505 0.026716584 -0.043059804
0.029467555 0.034354582 0.03451833 0.02957175 -0.009377065 0.017333578 0.032693025 0.012264069
-0.04057099 0.020281568 0.011275275 -0.025431858 -0.055471905 0.033688713 -0.035494633 0.017777748
-0.064244986 0.028716275 -0.009453147 -0.038482178 -0.011168251 -0.018519102 -0.045724798 -0.04232218
-0.013897545 -0.013603344 0.018203078 0.020881902 -0.016406236 0.0401828 -0.033020813 0.015798988
-0.0035855463 -0.027159957 -0.033580203 0.027434865 -0.047980726 0.035596505 0.017327294 0.018411754
-0.009503619 0.040858444 0.01468894 -0.055219233 -0.009643877 -0.0023664034 -0.05319637 0.0032796708
-0.008194825 -0.040574897 5.0736464e-05 -0.031101486 0.03936739 0.0034046378 0.032961108 0.0016158205
0.00080717774 -0.026359838 0.027908873 -0.0015938445 -0.039185952 -0.0054772296 0.00674623 0.03496704
0.0032317992 0.0010838021 0.038344216 0.012578457 0.009829506 -0.024364524 -0.041481897 -0.062485088
-0.0033533662 -0.010075548 0.014903312 -0.03496001 -0.011734444 0.0023894373 -0.05123348 -0.054716576
-0.013601666 -0.067500986 -0.0038226882 0.012680371 -0.03883805 -0.029804166 -0.0050106156 -0.014370334
0.03914426 -0.047007084 -0.028311495 -0.040575217 0.008879028 -0.06314387 0.011507666 -0.0024292471

l2.bias f4 [300]
00000000: 7129 e5bc 27ee 833c 5b9a f8bc f648 bcbd
00000010: 8cea 3ebb 23e7 43bc 6233 2d3d a7dc 5fbc
00000020: 9c56 9dbc 0dc2 953c a143 163e 343a 45be
00000030: 6c80 063c b9bb 6dbd 3927 39bd 25bd b53c
00000040: a1db 0dbd b74f 64bd e27c 89bc 9d95 73bd
00000050: 7a52 53bd 368e 9d3c 1ee6 483c 2590 57bd
00000060: d8d2 f0bc e7f0 33bc 2724 84bd e4d9 12bb
00000070: f9fc df3c c260 0a3d cd06 6ebd 1bcb 703c
00000080: a53e 95bd da34 dfbc 458f 0fbd c63a 68bd
00000090: 29df 7abd 82f0 e4bc 760d 43bd 115e 6fbc
000000a0: 4eeb 6abd 5d95 35bc d98b 8a3c 9d62 d73c
000000b0: 06f4 60bd 0f5e 353c 24fa afbc 49e9 593e
000000c0: 830e 6cbd 2c5d 52bd 1c70 483c 761e 22bd
000000d0: 2b64 223c d173 9cbd 7ec3 46bd d155 033e
000000e0: fae1 afbc 0b97 5ebd 9ae0 b03c 06d8 c6bd
000000f0: 58fd a1bc c0a3 89bc 155c 79bd 02b6 4bbd
00000100: 08a8 fc3c f759 cebc b95c 3cbc e3da 97bb
00000110: 773c 40bc 2ab6 30bd 590a 44bd 50ac 4abd
00000120: 03bc 9bbd 3975 ad3d 6bbd d73b 02ad 30be
00000130: bf50 c23c c884 1ebd 4d31 8abc 3631 023e
00000140: 68ac 5abd b3a2 abbd 63fc 2c3d fee7 7ebd
00000150: 4eb0 e0bc 04dd c1bc 962f 14bc 65f6 a9bd
00000160: c35a c7bd 4f8f efbc 98db f63e e463 abbc
00000170: 84f8 9cbc 6d0c a1bd e3e1 f33c e2f4 37ba
00000180: 2f9d debc 24a9 81bd 3caf 44bd 45a2 febc
00000190: e181 1abc baea 98bd 7b57 91bd 36bf 043c
000001a0: c495 20bc 680b 8a3c b2ee 323c b0e4 8abd
000001b0: 0640 89bd b60a 90bb 5032 1abd 6918 e03b
000001c0: 7642 4ebd c030 6bbd dbf3 51bd 8aeb 80bd
000001d0: 2e70 96bd 497e 6fbd 860f 19bc d26c 723e
000001e0: f052 4e3c a8ac 56bd e0c3 19bd a68f 22bd
000001f0: 3d9e 57bd 8e50 1ebd 68f8 323e 53c4 d23c
00000200: e9a1 ebbc 1dd8 2ebc 8c63 1b3e 5fcc 50bd
00000210: 6445 5bbd 4063 48bd 70fc 5dbd 0436 b4bd
00000220: 3f73 a1bc da94 bdbd 1793 00bd 73f3 8fbd
00000230: 3034 82be 46a4 85be 560f 14bd 4c5d 82bd
00000240: 8106 f6bb 9331 cf3c 8816 91bd 2446 41bd
00000250: dd9d 3dbd 4330 16bd 4e1c 013c d537 04bc
00000260: 74bc 69bd 9fd5 113c b565 37bc a743 243a
00000270: 216a 3a3d f1dd 41bd e0e1 e6bc 1ad9 e6bd
00000280: d95c bbbd 11f1 b0bd e704 873b c498 66bd
00000290: 6cea 35bd 573f 6dbd 2408 aabd 5639 eabc
000002a0: d2bb dfbc 4fc0 e43b 2c83 123e c522 f4bc
000002b0: 8a49 ffba 072b a0bd 9169 8fbc b838 4bbe
000002c0: f42d 8b3c 6acf 863c e5e5 ccbd 6ef0 d3ba
000002d0: a6dd 52bd 5e93 e838 75a7 d43c 148b 48bd
000002e0: e68c ccbc 3857 463c 6c06 e8bc 2b58 b8bc
000002f0: 6b87 c8bd 9ceb 8b3c db3e 9dbd c77a 85bc
00000300: 662f 98bc a016 0cbd 102c 6f3c a4f8 02bd
00000310: c991 923c a187 0dbd 3dd3 a5bd c2df 57bc
00000320: c269 6abd ab51 02bd 993c 5cbc f1cd 1c3b
00000330: 3da7 48bd 1a66 46bd 3822 86bc 620e dbbc
00000340: 00e0 fbbb 5d09 4ebd 988d c5bc feb7 c0bc
00000350: 9937 18be d039 683c 620b 153d b737 afbd
00000360: 46d7 b23c 4b5a 76bd 5c9d bdbc 3391 cbbc
00000370: 2e87 2dbd ff2d 8bbd 4733 4a3d 59c7 82bd
00000380: a730 39bd 5932 bdbc d801 05bd be02 77bd
00000390: efd7 b73c ad77 263e 2d36 95bc 4a83 8dbd
000003a0: fd98 dfbd 395e 4abd 565f a4bc 4603 66bd
000003b0: 996b 85bc b536 f2bc d571 1cbd 0f71 67bc
000003c0: 6cba 5cbd 06c3 dcbc f2be a4bd d378 f8bd
000003d0: af4e 683e 1b20 0d3d 3668 9bbd 48ac 713e
000003e0: f277 37bd 4d83 d5bc deeb d0ba 6dd8 13bc
000003f0: f2d5 8dbb ae6e 27bd 36f0 25be db5a 4a3c
-0.027973862 0.01610477 -0.03034704 -0.09193604 -0.00291315 -0.011956963 0.04228533 -0.013663447
-0.019206338 0.018281007 0.14674236 -0.19260484 0.008209329 -0.058040354 -0.04520342 0.022184918
-0.034633283 -0.055740084 -0.016783182 -0.059468854 -0.051592328 0.01923285 0.012261895 -0.0526277
-0.029397413 -0.010982729 -0.06452208 -0.0022407705 0.027342306 0.03378368 -0.058111954 0.014696862
-0.07287339 -0.027246881 -0.03504874 -0.056696676 -0.06124798 -0.027946714 -0.04762026 -0.0146098295
-0.05735331 -0.011082974 0.016912388 0.02629214 -0.05492022 0.011069789 -0.021481581 0.21280397
-0.057631027 -0.051358387 0.01223376 -0.03957983 0.009911577 -0.07639278 -0.04852628 0.12825705
-0.021470059 -0.054343265 0.021591473 -0.09709172 -0.019774124 -0.016801715 -0.060878832 -0.049734123
0.030841842 -0.025189383 -0.011496716 -0.0046342476 -0.011733166 -0.043142475 -0.04786143 -0.049480736
-0.0760422 0.08469624 0.0065838597 -0.17253497 0.023720143 -0.03870085 -0.016869212 0.12714085
-0.053387076 -0.08380642 0.042232882 -0.062232964 -0.027427819 -0.023664959 -0.0090445485 -0.08298949
-0.09734108 -0.02924314 0.48214412 -0.020921655 -0.01916147 -0.07863698 0.029770797 -0.00070173864
-0.02717456 -0.06331089 -0.04801868 -0.031083236 -0.00943038 -0.074666455 -0.07096764 0.008102229
-0.009801332 0.016851142 0.010921167 -0.067819 -0.067016646 -0.004395808 -0.037645638 0.0068388474
-0.05035635 -0.05741954 -0.05125795 -0.062949255 -0.07345615 -0.058470044 -0.00934208 0.23674324
0.012593016 -0.05241075 -0.037540317 -0.039687775 -0.052641142 -0.03865104 0.17477572 0.02572838
-0.028763728 -0.010671643 0.15174693 -0.050976153 -0.053532973 -0.048922777 -0.05419582 -0.08799365
-0.019708274 -0.09256907 -0.031390276 -0.07028856 -0.2543044 -0.26101893 -0.036147438 -0.06365451
-0.0075080995 0.025292194 -0.070843756 -0.047186032 -0.04629313 -0.03666712 0.0078802835 -0.008069952
-0.05706449 0.008901029 -0.011193682 0.00062661845 0.04551137 -0.0473308 -0.028183877 -0.112718776
-0.09148569 -0.0863973 0.0041204575 -0.056298032 -0.044413015 -0.057921734 -0.08302334 -0.028591793
-0.02731124 0.006980933 0.1430785 -0.029801736 -0.0019476872 -0.07820707 -0.017506393 -0.19845855
0.016989686 0.016456325 -0.100047864 -0.0016169676 -0.05148091 0.00011090071 0.025958756 -0.04896076
-0.02496953 0.0121057555 -0.028323375 -0.02250298 -0.09791454 0.01708012 -0.07678004 -0.016293896
-0.018577289 -0.034201264 0.014597908 -0.031975403 0.017891781 -0.034553174 -0.08096931 -0.013175907
-0.057229765 -0.031816166 -0.013442182 0.0023926462 -0.048987616 -0.048437215 -0.016373739 -0.026740257
-0.007686615 -0.0503019 -0.024115369 -0.023525234 -0.14864959 0.01417394 0.03638781 -0.08555549
0.021831166 -0.060144704 -0.023146324 -0.02484951 -0.042365246 -0.067958824 0.049365308 -0.06385679
-0.045212414 -0.023095297 -0.03247246 -0.06030535 0.022441832 0.1625659 -0.01821431 -0.06909807
-0.10917852 -0.049406264 -0.020064991 -0.056155466 -0.016286658 -0.029567102 -0.038194496 -0.014126076
-0.053888723 -0.026948463 -0.080442324 -0.121324204 0.22686265 0.034454446 -0.07588236 0.23600876
-0.044792123 -0.026063586 -0.0015939435 -0.009023768 -0.004328483 -0.040877037 -0.16204914 0.012350763

l3.weight f4 [1, 300]
00000000: 8ed5 18bc 9b35 0f3d 9539 78bd 96e6 c53a
00000010: 3253 59bb d249 4e3c 0a2a 4fbd 1b0f 29bd
00000020: 9c0e 0abd 99ad a4bb 6ddf 053e 68eb 56bf
00000030: c2b6 313d 57a8 51bb e4ed 8c3c 23d4 b73c
00000040: 7ca6 523b 8127 ad3b 7d82 8e3b 0b0a b83a
00000050: 2a47 833a 5520 12bc aaf3 d2ba c62c b73c
00000060: b449 febc c917 163e 1672 69bc 29d0 d0bc
00000070: 231b 06be c6c2 79bd 9b7c 5aba 0f31 383c
00000080: 0f93 0a3c cf6a 7ebd 0fd9 16bc 94ab 26bd
00000090: d8a2 30bd 1c51 edbb dd27 103d 01b3 dd3c
000000a0: 2905 023e 36e2 823c b2ab 293b 1328 813c
000000b0: 8804 04be 77cc f73c 8c0b 083d 2280 4dbe
000000c0: faf8 d4bd 0c29 733e 41ef d63b c584 3d3b
000000d0: 49f6 cc3a bfbd ce3c a466 32bd 02d3 4abe
000000e0: b84e 8c3a ee7e d73a 8868 ae3b 5aaf 0dbb
000000f0: f133 f93c 61e0 d5bc 16a7 a03d 10c4 ce3c
00000100: 7176 e3bb fb6a 653c 1fa1 a53c c46d d73b
00000110: 732f 40bc 6681 2ebd daa2 4e3c cc6a 15bc
00000120: 3cb5 87bc a360 e23e fd9b f4bc e705 383f
00000130: 5f4f 82bb 4ab1 553c afdb 733c 7289 123e
00000140: 03b3 b73b bc47 eabc 844f 75be 302a 853c
00000150: ec1b fcbb e8da d2bc 53bc 583d a31a 803c
00000160: 51c4 923c d620 573e 2a46 e3be a206 133c
00000170: 8015 103c b3e8 8e3d e8bc 22be 5cad bfb9
00000180: 1f4c 31bc e01b fcbd 5131 37bb 998d e03c
00000190: 00f9 453c 1bfc c33c 7324 d93b 4c93 01bd
000001a0: c05c 0fbc 4f52 38be 8e57 19bd 0074 c6bb
000001b0: 80f8 9f3b bcf4 dcbc c704 de3c f79c 813d
000001c0: f2e5 d4bb a823 ac3c 65ad ab3b e85b 84bc
000001d0: 90dc a6bb b09b 6db9 a87f 263d 7926 593e
000001e0: d741 753d 1393 8c3b fb96 553c 3120 e3bc
000001f0: b4df a43c faa9 ee3c 7ca2 e5be c4fe c6ba
00000200: 2314 17bc afad 143d 7f7d 13be ed38 b9bc
00000210: 8ca8 b7bd 2c54 953c ec37 63bb 4846 ef3c
00000220: b63f 6bba c486 a8bc 9c23 b9bb da5a 073d
00000230: bdc2 023f 4880 78bf fdcd 673c f199 19bd
00000240: 356f 383c 8733 613b 42b5 1cbb d566 083c
00000250: 13df 2b3d 036e 573c 1f72 d23c 1d88 bbbc
00000260: 0508 a63b 6654 be3c cc7e 303d 5848 643c
00000270: 88cc 4c3d a58a 50bb 770a 96bd 29a0 343d
00000280: c367 4e3b ca79 903c 8dfc d83d 4979 273f
00000290: 5d69 f73a b2e7 aa3c a92a 703c 19c4 11bc
000002a0: cff7 133c 2ba6 883c 992c 213f 64a5 f03b
000002b0: 821f 9ebc a0a9 293c 1b2e 223e d6a0 d9bd
000002c0: 501e 84bb 3864 173c 325f 1bbc d423 24ba
000002d0: 8509 00bc d6f8 cc3c 0e5a 953c 362d 1abd
000002e0: 938f 68bc b9b2 84bc dedb d1bc 32e8 f9bb
000002f0: 7eda 0a3e 563c f4bb 9665 1e3c f6ab 773c
00000300: 0a03 243c db29 13bc 4873 15bd 9337 2c3a
00000310: 19e0 87bf eaae 603e f47f edbd 0043 0c3e
00000320: 5492 893d a519 81bc ea0b cbbd 1da9 0a3d
00000330: 7062 30bd 256a 823e a633 c33c 6370 c03c
00000340: 931d 00bd 52c8 1d3c 2868 e13c eae1 1d3d
00000350: 2d63 0b3d d9a2 17be 9adb 90bd 79af 8dbe
00000360: 378f 013c f58a c5ba 947b b7bc aa98 d1bb
00000370: 218b 79ba d90a 96ba 7878 ee3d ea48 61ba
00000380: c6dd 4bbe a9ae 7b3c 9589 3c3c 1a9f 8cbb
00000390: 2b93 50bc 47c9 c93e 0200 e4b9 1afc ed3b
000003a0: c532 8b3e 89b8 60bc 11f3 45bc cd2a ccbb
000003b0: 6084 f43c 8b0f d93c eb23 e6bd 7777 f63a
000003c0: 050c a8bd 837f a1bc d914 413c 231a bbbe
000003d0: d675 8fbe 8293 7d3a e2c7 1cbb cb06 8bbe
000003e0: 6180 2e3e d0f2 023c 9cf5 0ebc bb4c 203a
000003f0: a2b3 a5bd 36b3 693b 8c2c 763c 6766 973c
-0.009328259 0.03496323 -0.06060179 0.0015098627 -0.003316116 0.012590842 -0.0505772 -0.04127417
-0.03370534 -0.0050255773 0.13073511 -0.8395295 0.043387182 -0.0031991208 0.017203279 0.022440022
0.003214269 0.0052842502 0.0043490515 0.0014041079 0.0010015715 -0.008918841 -0.0016094346 0.022360217
-0.031041004 0.14657511 -0.014248392 -0.025489883 -0.1309629 -0.060976766 -0.00083346077 0.011242165
0.008457913 -0.06211358 -0.009207024 -0.040690973 -0.04312405 -0.007242335 0.035194267 0.027062895
0.12697281 0.015977006 0.0025889692 0.01576618 -0.12892354 0.030248864 0.033214137 -0.2006841
-0.10399051 0.23746127 0.006559283 0.0028918248 0.0015637364 0.025236962 -0.043554917 -0.19807056
0.0010704612 0.0016441026 0.0053225197 -0.002161941 0.030420275 -0.026107969 0.07844369 0.025239974
-0.0069416096 0.014002557 0.02021843 0.0065743644 -0.011730063 -0.042603873 0.012612069 -0.009119701
-0.016565911 0.44214353 -0.029859537 0.71884006 -0.003976747 0.013042757 0.01488392 0.14310244
0.0056060567 -0.028598659 -0.23956114 0.016255468 -0.0076937582 -0.025739148 0.052913975 0.015637701
0.017915877 0.2100862 -0.44389468 0.008973749 0.0087941885 0.069779776 -0.15892375 -0.00036559522
-0.010821371 -0.12310004 -0.002795298 0.027411269 0.012083292 0.023923924 0.0066266595 -0.031634614
-0.008750141 -0.18000148 -0.037437014 -0.0060563087 0.0048819184 -0.026972167 0.027101887 0.06328767
-0.006497138 0.021013096 0.005239176 -0.016157106 -0.005092211 -0.0002266008 0.040649086 0.21206082
0.059877243 0.0042899936 0.013036485 -0.027725311 0.020126201 0.029133786 -0.44850528 -0.0015182127
-0.00922111 0.03629845 -0.14403342 -0.022610152 -0.08967695 0.018228613 -0.0034670783 0.029208317
-0.0008974032 -0.020572074 -0.005649997 0.033045627 0.510784 -0.9707074 0.0141482325 -0.037500326
0.011256983 0.0034362988 -0.002391175 0.008325298 0.041960787 0.013148787 0.025689183 -0.022892052
0.005066874 0.023233604 0.043089673 0.013933264 0.049999744 -0.003182092 -0.07326215 0.044098053
0.0031494952 0.017636199 0.10595045 0.6541944 0.0018876005 0.020862434 0.0146586085 -0.008896851
0.00903125 0.016680798 0.62958676 0.007343935 -0.019302133 0.010355383 0.158379 -0.1062638
-0.004031934 0.009240203 -0.009483146 -0.00062614423 -0.00781477 0.025020998 0.018231418 -0.037640773
-0.014194387 -0.016198503 -0.025617536 -0.007626557 0.1355991 -0.0074534817 0.009667775 0.015116682
0.01001049 -0.008982147 -0.036486894 0.00065695605 -1.0615264 0.21941724 -0.11596671 0.13697433
0.06717363 -0.015759299 -0.09914382 0.033852685 -0.043062627 0.25471607 0.023828339 0.02349109
-0.031278204 0.00963028 0.027515486 0.038545527 0.03403013 -0.14808215 -0.07073136 -0.27672938
0.00790768 -0.001507132 -0.022397794 -0.006396373 -0.0009519328 -0.0011447325 0.11644071 -0.0008593934
-0.19908819 0.015361466 0.0115074115 -0.0042914273 -0.0127304 0.39411375 -0.00043487555 0.007262719
0.27187172 -0.013715872 -0.012081877 -0.006230688 0.029848278 0.02649667 -0.112373196 0.0018803914
-0.082054175 -0.019714123 0.011784756 -0.36543378 -0.2801959 0.00096731645 -0.002392285 -0.2715362
0.1704116 0.007992461 -0.00872555 0.00061149494 -0.08090903 0.0035659797 0.015025269 0.018481446
