01_RL/02_DDPG/Trained_Models/DDPG_Pendulum-v0/critic.pth (torch_old, 491446 bytes, 5 tensors)

l1.weight f4 [400, 4]
000000 ec 75 ee be a6 9b 61 3f d3 f3 5a 3e cb ad 55 be
       -0.46574342 0.88128126 0.21382074 -0.20867078
000010 fa 3b 27 3f 2d ed af 3f 0c eb 73 3e 28 26 13 3e
       0.6532589 1.3744255 0.23820132 0.14370024
000020 de f2 ae be bb f0 0e 3f 8b dc 55 3e 49 71 98 3e
       -0.34169668 0.55836076 0.20884912 0.2977393
000030 2b c8 f4 bd 88 9a ad bf 1d 35 73 be 24 71 bb bd
       -0.119522415 -1.3562784 -0.2375073 -0.09152439
000040 de b2 76 3f b6 cb 76 3f 32 0d b9 3e 72 88 f7 3c
       0.9636668 0.9640459 0.3614288 0.03021643
000050 75 b5 57 3f 33 11 73 3f 35 f4 a9 3e f8 fb 56 3e
       0.84261256 0.9494812 0.33194128 0.20994556
000060 9c 37 03 3f 44 42 9f 3f 54 be 64 3e 3c 74 90 3d
       0.5125673 1.2442098 0.2233823 0.0705342
000070 97 25 0d bf e1 8c 39 be 46 3d b9 3d 1a 22 0c be
       -0.5513548 -0.18120147 0.0904489 -0.13684884
000080 4d ba 17 bf c4 28 87 be cb 8b a6 3e b9 46 66 be
       -0.5926865 -0.2639829 0.3252853 -0.22487916
000090 db d7 74 3e 9b b0 92 be 5b e2 17 3e 67 1b 97 3d
       0.23910467 -0.28650364 0.14832442 0.073782735
0000a0 82 09 26 bf 2f cf 17 3f da 0d 49 3d f8 2a c3 be
       -0.6485826 0.5930051 0.049085476 -0.3811872
0000b0 bb 49 fa be e7 2e 42 bf 35 20 25 bc 61 16 12 3d
       -0.48884377 -0.7585282 -0.01007848 0.035665873
0000c0 24 3c 88 3e de 9d 0e bf 20 4a 9f 3d 52 7b 73 be
       0.26608384 -0.55709636 0.0777781 -0.23777512
0000d0 92 aa 6d 3e 70 e3 9f 3f 76 14 1c 3e ad 6d 3a 3c
       0.23209599 1.2491283 0.1524218 0.011378688
0000e0 f4 92 b4 3e 26 07 39 bf 3a 5c ad 3e 17 da ad bd
       0.35268366 -0.7227653 0.33859426 -0.08488863
0000f0 bf 86 e8 3e 0c d2 47 3d fa e6 82 bc be 99 de 3d
       0.45415303 0.0487843 -0.015979279 0.10869168
000100 18 6e 51 3e eb 13 d1 3d 5e 2f 07 bf 2b 38 6c 3e
       0.20452154 0.10208877 -0.5280665 0.23068301
000110 62 f2 c3 3e 5a 43 34 bf 0b d3 a3 3e 75 5f 8f 3c
       0.3827086 -0.7041527 0.3199695 0.017501572
000120 0d 53 9a be 84 49 fc be d4 c0 fb 3d f6 69 54 3c
       -0.30141488 -0.49274838 0.122926384 0.012964716
000130 97 8a 1d 3f 9d 54 00 bf b0 35 80 3e 81 50 0a 3e
       0.61539596 -0.5012911 0.2504096 0.13507272
000140 03 c3 ec 3e a1 75 e9 3e 92 13 54 3d 2f e3 81 3e
       0.46242532 0.45597556 0.051776476 0.2536864
000150 43 e4 1f 3f 6b c1 a0 bf 15 97 62 be cb 6c 2b be
       0.62457675 -1.2559026 -0.22127946 -0.1674072
000160 73 af 20 bf 24 8c b5 bd a4 fa 66 3e 09 20 96 be
       -0.62767714 -0.0886462 0.2255655 -0.29321316
000170 bc e7 e2 be 6b 53 09 3f 22 fb a5 3c 22 18 34 be
       -0.44317424 0.5364291 0.020261351 -0.17587331
000180 16 ee 68 bf 84 b8 32 bf bf 87 48 be 1a ef 92 be
       -0.9098829 -0.698128 -0.19583033 -0.28698045
000190 90 e0 1f 3f 6b 72 93 bd 67 48 da 3e 81 eb 53 3d
       0.6245203 -0.07199558 0.42633364 0.051738266
0001a0 56 67 39 3e 09 6d 90 3f 6c 78 24 3e af 90 58 3d
       0.18105826 1.1283275 0.16061562 0.052872356
0001b0 38 f7 81 bf 92 35 7a be a7 3e f2 bd 34 91 d5 be
       -1.015357 -0.24434498 -0.11828356 -0.41712344
0001c0 cc e8 11 bd fa cb 33 bd 14 00 ab 3e 8b 67 ed 3c
       -0.035622403 -0.0438957 0.33398497 0.028980037
0001d0 66 f7 f0 be 60 e1 45 bf 4a 25 28 be f9 33 96 bc
       -0.4706375 -0.7729702 -0.16420475 -0.01833533
0001e0 26 f5 3a bf 62 8f 35 bf 58 62 4e be e1 be 4a bd
       -0.73030317 -0.7092191 -0.20154703 -0.049498443
0001f0 62 70 0b bf 2f c1 3a bf da a8 1c be 60 5b d7 bc
       -0.5446836 -0.72951025 -0.15298787 -0.026288688
000200 1b 83 03 bf 5b f2 8a be f1 29 6e 3e 21 51 4d bd
       -0.51371926 -0.27138028 0.23258187 -0.0501262
000210 c8 3b 39 3f fa 47 a6 3f 6e 31 3d 3e 6c b1 24 3d
       0.72356844 1.2990716 0.18475887 0.040208265
000220 5f 41 89 3f 98 1b 36 be 30 08 98 be 35 8d ba 3e
       1.0723075 -0.17783964 -0.29693747 0.36435857
000230 e6 57 5c bf 12 eb a1 bf fd ee ca be 73 94 72 3d
       -0.8607162 -1.2649863 -0.3963546 0.059223603
000240 fa 54 9e 3e 91 ef 2d bf 05 20 10 be 19 0c 54 be
       0.30924207 -0.67943674 -0.14074714 -0.2070774
000250 07 80 d3 3e 82 78 f3 bf 40 09 cf be 57 87 84 bd
       0.41308615 -1.9021151 -0.40436745 -0.064711265
000260 20 9d a6 be 71 86 17 3f db 5e db 3d 95 68 0f bd
       -0.32541752 0.59189516 0.107114516 -0.035011847
000270 11 58 2e bf a3 e8 4b bf 30 ed 50 be d2 f3 50 bd
       -0.6810313 -0.7965185 -0.2040298 -0.051013775
000280 d0 f6 00 be ea 30 4b bf a1 ad 8d be 37 71 9b 3d
       -0.12594151 -0.7937151 -0.2767153 0.075899534
000290 a0 75 2c 3e 8f 0c 49 be 12 2d 90 3e 28 85 c4 bd
       0.16841745 -0.19633697 0.28159386 -0.0959571
0002a0 de 30 f7 bd e4 af 50 bf 5a 92 ec 3d 3f 25 9b 3e
       -0.120698676 -0.8151839 0.11551352 0.30301854
0002b0 1b be b1 bc 0d 24 81 bd ca c9 39 b7 32 61 d4 bc
       -0.021697095 -0.06305704 -1.1073842e-05 -0.025925253
0002c0 df a2 0b 3f 33 fc 4e bf ed c8 a0 3e 58 3d 95 3d
       0.54545397 -0.80853575 0.31403294 0.07287091
0002d0 cf 69 04 3f cd 81 6d bf 12 8e be bb 35 a5 d8 3e
       0.5172395 -0.92776185 -0.005815276 0.42313543
0002e0 41 87 7a bd 9b 65 c7 3d 62 31 68 3c 07 a5 c5 bd
       -0.061164144 0.097361766 0.01417193 -0.09650617
0002f0 d4 f5 0c be 37 87 ab 3f 8d 37 5c 3e 19 81 1e 3d
       -0.13765651 1.3400639 0.21505566 0.038697336
000300 c9 92 23 3f f0 67 84 bf 15 88 b1 3d 31 92 41 3d
       0.6389585 -1.0344219 0.08668534 0.04725856
000310 99 75 54 bf cf d0 73 3f 02 69 b1 3e 83 08 e3 3d
       -0.8299194 0.9524049 0.34650427 0.11085608
000320 9d a1 86 be ac 3b b6 3d 87 8f e0 3b 27 f6 17 bd
       -0.26295176 0.088981 0.0068530473 -0.037099984
000330 39 6c 19 3f b1 ea 4b 3f 0c f2 65 bd bc 11 d0 be
       0.5993076 0.79654986 -0.056139037 -0.4063853
000340 bb 49 2f 3f 59 df 90 bf 06 72 4f be 4b ef 33 bd
       0.6847188 -1.131816 -0.2025834 -0.04392938
000350 4b 70 89 bc 87 26 a1 be e3 6e dc be a5 d6 f5 3d
       -0.016777178 -0.31474707 -0.4305335 0.12003831
000360 a4 e9 b5 bd 58 95 9d bf 22 df 67 be 49 64 30 bd
       -0.08882454 -1.2311201 -0.22643712 -0.04306439
000370 fa d7 f5 3e a4 ab 38 bf 74 c2 85 3e dc 0a b0 3d
       0.4801634 -0.721369 0.26124918 0.08595821
000380 d7 5f 91 be bb 80 37 3e a9 77 ac bd ac 47 be 3d
       -0.28393432 0.179202 -0.08421261 0.09291014
000390 06 fc f7 be 7e 1f 85 3f 00 ec 3c 3e 71 fa e6 bb
       -0.48434466 1.0400236 0.18449402 -0.007048898
0003a0 8c 67 74 3e 73 42 09 3f 5f e5 91 be 7e e3 9e 3d
       0.23867625 0.5361702 -0.2849531 0.077582344
0003b0 b8 3c 62 3f 67 6e 4d 3f 6c f1 ae 3e 41 ce 90 3c
       0.883739 0.80246586 0.34168565 0.017676475
0003c0 2c ba 9e 3e 42 33 6c bf de 38 e8 3d d4 0b 0a bd
       0.31001413 -0.92265713 0.113389716 -0.033702686
0003d0 7e d1 35 3f 82 f1 b7 3e 7c b9 c6 3e ff f8 cb 3c
       0.71022785 0.35926443 0.38813388 0.024899004
0003e0 da 7d df 3e d4 2f c9 bf 28 a5 9a be 8a 7f d1 bd
       0.43650705 -1.5717721 -0.3020413 -0.10229404
0003f0 2c d9 06 3f da 5f f3 3f 4e 97 cd 3e 06 7f 25 3e
       0.5267513 1.9013627 0.401545 0.16161737

l1.bias f4 [400]
000000 5e fc 1c bf 74 95 36 3e 12 42 98 be 1f a5 0b be
       -0.6132258 0.1783045 -0.29737908 -0.13637207
000010 27 2e 9b be dd ab 2a 3e b4 15 a7 3e fe 26 29 3e
       -0.3030865 0.16667123 0.32633746 0.1651878
000020 81 48 80 bf 15 1e b5 bd bc 7c 0c be 97 d9 a0 3e
       -1.0022126 -0.08843628 -0.13719457 0.31416008
000030 e3 56 e4 be 2c fb cc 3d b2 11 7f be 29 01 f4 3e
       -0.4459754 0.10008845 -0.24909094 0.47657135
000040 10 21 64 bf 95 fc 82 bd df 8b 02 bf 95 dc 8f 3e
       -0.8911295 -0.063958324 -0.50994676 0.28097978
000050 82 cd 87 3d 36 82 d4 3d f7 c9 2f 3f a8 2e b1 bd
       0.066309944 0.10376398 0.6866755 -0.08651477
000060 be ec ae be 51 dc 2e 3d f9 5a 2a 3d 40 2d c1 be
       -0.34164995 0.04269058 0.041590665 -0.37729836
000070 19 70 f0 be 12 9a 9d 3e fe 07 13 3f d9 41 cc 3e
       -0.46960524 0.3078161 0.5743407 0.39893988
000080 a9 56 4b bf 77 f2 ce be f5 7c 21 bf b7 13 46 bf
       -0.7942911 -0.4041936 -0.63081294 -0.7737383
000090 d6 3f 64 be 82 d1 47 bf 4b b7 50 3d 90 2a 03 3f
       -0.22289976 -0.7805406 0.05095605 0.5123682
0000a0 cb a6 5b bf fc bd 75 be b4 d8 9c 3d e5 2e 03 be
       -0.8580138 -0.23998255 0.0765852 -0.12810858
0000b0 86 38 bb 3e 70 13 c4 3e 1b a0 92 be 7f 99 c4 3a
       0.3656656 0.3829608 -0.28637776 0.0014999359
0000c0 c9 65 0a bf d3 18 cb be dd 99 a4 bd 29 d4 8f 3e
       -0.5406156 -0.39667377 -0.080371596 0.28091553
0000d0 79 90 ca be ce 61 fc be 2f 7c f3 be 88 8a 46 3e
       -0.3956335 -0.4929337 -0.47555682 0.19388783
0000e0 11 bb c9 3e a3 d9 6b 3e d8 e6 dc bd 56 00 b1 be
       0.39400533 0.2303224 -0.107862175 -0.3457057
0000f0 47 a5 23 3e 1e a3 61 bf c9 cb 32 be fa f2 f1 bd
       0.15981017 -0.8813952 -0.1746055 -0.11813922
000100 8e fb a7 bd a0 58 00 3f 87 68 46 bd 3a bd df bb
       -0.08202277 0.5013523 -0.04843953 -0.0068279775
000110 95 22 f4 be 07 3e bb bd 3f 25 02 bf 7e 6a b6 bc
       -0.47682634 -0.0914269 -0.50838083 -0.022267576
000120 59 f1 37 bf 1b ad 89 bf c6 cc 79 bf 1b 6f c0 be
       -0.7185264 -1.0755953 -0.97578084 -0.37584767
000130 78 08 00 3f f0 eb a0 be 5f f5 02 bf e0 91 26 3d
       0.5001292 -0.31430006 -0.51155657 0.04066646
000140 1e 4d de be 38 bc 30 bf 72 20 15 bf 4f 55 1c bf
       -0.4341821 -0.690372 -0.5825263 -0.6106767
000150 0b b4 29 bf 96 9d 08 be 31 74 9f be 95 5a 1b 3f
       -0.6629035 -0.13341364 -0.31143335 0.6068509
000160 dd 24 2b bf b2 45 c7 be 24 13 0a bd 1a 21 b1 3e
       -0.66853124 -0.3892036 -0.03370966 0.34595567
000170 7f df 43 bf 82 25 10 bf b3 44 15 bf 83 92 59 bf
       -0.765129 -0.5630723 -0.5830795 -0.84989184
000180 66 f5 37 3f 1e ef 25 bf ed 30 19 bf bd 56 07 bf
       0.71858823 -0.6481799 -0.5984028 -0.5286673
000190 da d0 d7 3e 32 fd da be f0 4a 36 3f a2 e6 c5 3e
       0.4215153 -0.42771298 0.71208096 0.3865252
0001a0 04 6f f1 3d 36 a0 cd be 8f ee bd 3e 32 86 a0 3e
       0.11788753 -0.40161294 0.37096068 0.31352383
0001b0 4e 5e 93 be b6 1a 1b bf f6 ed d2 be 34 75 02 be
       -0.28782886 -0.6058763 -0.41197175 -0.12740022
0001c0 6d dd 5b 3d cf c7 35 3e f9 4c 41 be 23 f3 70 3e
       0.053677965 0.17752002 -0.18877019 0.2353025
0001d0 6e ed 40 bf 9c c1 e1 be 76 be fa 3c 8f a4 ab 3d
       -0.7536229 -0.44093025 0.030608397 0.083809964
0001e0 0a 19 bb bc 97 75 03 bf e3 24 f8 3e 64 54 1e 3f
       -0.022839088 -0.513513 0.48465642 0.6184752
0001f0 79 94 6a 3e 52 00 b5 3e 45 18 b9 bd 41 cb ce be
       0.229082 0.35351807 -0.09037832 -0.40389445
000200 d0 e7 bc 3e c1 49 b2 3e db 7b 2f bf a7 72 ee bd
       0.3689561 0.34821895 -0.68548363 -0.11642962
000210 50 8e 5e bf 73 90 7a be 5d 71 dd bd 57 df 1d be
       -0.869359 -0.24469166 -0.10812638 -0.15417229
000220 39 e0 a0 3e ab 22 de be eb c5 92 3e 21 3d 98 be
       0.31421068 -0.43385825 0.28666624 -0.29734138
000230 8d 04 42 bf cd b5 4c 3e 0d 0e 04 bf 3d 3d aa 3e
       -0.75788194 0.19991226 -0.5158394 0.33249846
000240 8f e3 bb 3d 7c 31 e6 be 47 c1 09 3b 5e 80 fb be
       0.09174263 -0.4495963 0.0021019743 -0.49121374
000250 a6 58 91 be 85 0a ba 3e 3d 3a 97 be 17 6b 6b 3e
       -0.28387946 0.3633615 -0.2953662 0.2299007
000260 d1 ed 04 3e d5 95 84 3e ef ca 4f 3c 6c 0e 93 be
       0.12981345 0.25895563 0.0126826605 -0.2872194
000270 8a 56 23 3e 21 a7 e4 be d2 06 00 3e ff cc f8 3e
       0.15950981 -0.4465876 0.12502602 0.485939
000280 ae dd 47 bf d6 06 c3 be f1 74 be be b5 fa e4 3e
       -0.7807263 -0.38091153 -0.37198594 0.44722524
000290 a9 a1 30 3c e1 05 91 be c0 d6 3f be 0e 46 01 bf
       0.01078073 -0.28324798 -0.18734264 -0.5049752
0002a0 c5 67 db 3e 09 11 21 bd 9c 7b f9 3e f2 e7 11 bf
       0.42852607 -0.039322887 0.4872712 -0.56994545
0002b0 06 cd a7 3e 5a f6 59 3e 65 09 44 bc e2 90 92 bc
       0.32773608 0.21285382 -0.01196513 -0.017891351
0002c0 95 c5 49 bf 44 49 cd 3e 38 73 bc 3e 26 d1 3c 3e
       -0.7881711 0.4009496 0.36806655 0.18439159
0002d0 88 0d 39 be 77 2b c6 3e d3 d5 28 3f b9 68 36 3e
       -0.18071568 0.38705036 0.6595127 0.17813386
0002e0 bd fa 3e bf be b7 73 bf d8 0b f4 3e 82 0f bd 3e
       -0.74601346 -0.95202243 0.47665286 0.36925894
0002f0 6a 46 d3 be 3e af 43 bf 51 86 42 3d 5c a9 fd 3d
       -0.4126466 -0.76439273 0.047491375 0.12385818
000300 fc ce 2c 3f e0 6d 19 bf 3e b3 d9 3e 53 2b 27 3d
       0.67503333 -0.5993328 0.42519563 0.0408128
000310 84 c3 91 3e 29 5a fe be 42 42 49 bf 0e 51 fd 3e
       0.2846948 -0.49678162 -0.78616726 0.49475902
000320 21 ce 68 be 89 fb b2 bd ec 97 81 3e 9f fa 6e bd
       -0.22734882 -0.08739383 0.2531122 -0.05834448
000330 48 9b c3 be 58 91 8f be 1d 2a b7 bc af 44 f0 be
       -0.38204408 -0.28040576 -0.022358948 -0.469274
000340 f1 8b c6 be 71 55 1a bf 0f 34 c8 3e cc 8e 2c bf
       -0.38778642 -0.60286623 0.39102218 -0.6740539
000350 f8 a0 89 be 9e f2 ac 3e 8c 77 80 3d 11 05 20 bf
       -0.26880622 0.33778852 0.06272802 -0.6250773
000360 70 b8 cf 3e d3 f8 06 3e ed c5 ec 3e 9f 41 da be
       0.40570402 0.13180856 0.46244755 -0.4262819
000370 26 24 49 3e f8 6e a7 be 37 29 88 be bc 44 24 3f
       0.19642696 -0.3270185 -0.26593944 0.6416738
000380 23 32 8c 3e 1f 38 0c bf 83 3b ad 3e 62 4d 17 3f
       0.27382 -0.54773134 0.33834466 0.5910245
000390 12 23 46 3e d5 07 c2 3d 03 d0 d9 3e 44 6a 34 bf
       0.19349316 0.0947415 0.42541513 -0.7047465
0003a0 1e ea fb 3b f6 e7 5b bf ad 2d b3 3e b2 b1 19 be
       0.007687821 -0.8590082 0.34995785 -0.15009192
0003b0 cf 7e 1e 3f 85 6c 9e be 6a 60 bb 3e c4 cf 51 be
       0.61912245 -0.3094217 0.36596996 -0.20489413
0003c0 35 51 b5 3d 34 68 2e be 1d 6d 92 be d3 99 b1 be
       0.0885338 -0.17031938 -0.28598872 -0.3468767
0003d0 2e 9f 4e bf 54 52 ea 3d 32 b6 fa be 79 b8 8c 3e
       -0.8071164 0.11441484 -0.4896713 0.2748449
0003e0 4c cf 10 3f 7e 2e e5 3c 30 44 2a 3f 2b 89 cf bd
       0.5656631 0.02797627 0.66510296 -0.101335846
0003f0 d7 5e 20 bf 42 1b 5d 3e e8 1b 8d be fd 86 0a bf
       -0.62644714 0.2159243 -0.27560353 -0.54112226

l2.weight f4 [300, 400]
000000 d1 06 98 bd 1f 7c 0e bd f6 6e b0 bc 59 d5 db 3d
       -0.07423175 -0.03478634 -0.021537285 0.10734052
000010 0d dc 38 bd eb 0f 8f bd 6d 4a 27 bd 17 2b d5 bc
       -0.04513173 -0.06985458 -0.040842462 -0.026021523
000020 a9 f3 ac bd 55 89 da bc 03 10 0a 3e 35 2c ec bb
       -0.08444912 -0.026676813 0.1348267 -0.0072074183
000030 b7 94 07 bd 2c 1b c2 bb 31 8d 51 3d c8 12 db bd
       -0.03310081 -0.0059236493 0.05116004 -0.106969416
000040 e1 de d3 bd fc 5b fb 3c 91 73 26 3d 36 df cf bc
       -0.10345245 0.03068351 0.040637556 -0.02537499
000050 e8 fb 16 be cc e5 29 be 5e 6c a2 3c 29 e3 5b bd
       -0.14744532 -0.16591567 0.019827064 -0.053683434
000060 f7 be 26 be 8b fb 6c bd 8a e1 06 bc 28 fc 2e be
       -0.16283785 -0.057857078 -0.008232484 -0.17088377
000070 14 a9 0f 3d e9 e4 3b 3d fd 14 48 bc 62 d6 e4 3b
       0.035073355 0.045872603 -0.012212035 0.0069835642
000080 90 6d ee bd 33 2e ab 3d b1 39 dd 3d 6d 08 12 be
       -0.11641991 0.08358421 0.108020194 -0.14261027
000090 fb 0e 8c bd 4f a5 fb 3c 7e 6a 9c bc 19 de 11 3d
       -0.06838795 0.030718474 -0.019093748 0.0356122
0000a0 5c 8e 50 be c5 6f 28 3d 51 aa 58 39 f0 90 c1 bc
       -0.20366806 0.041122217 0.00020662813 -0.023628682
0000b0 5e a7 52 bd 65 ca 98 ba e1 34 13 bc 01 00 49 bd
       -0.051429145 -0.0011656998 -0.008984775 -0.04907227
0000c0 ff 71 1a 3e 88 42 30 be 5c 33 3f bd e1 fe 2c 3d
       0.15082549 -0.1721288 -0.04667984 0.04223526
0000d0 42 d5 96 3e 7e 13 06 be fa 40 84 bd de 3a 34 3b
       0.29459578 -0.13093373 -0.06457706 0.0027500908
0000e0 ad 3c a2 bd 6e 84 0a 3d a1 fe 06 be e3 70 a5 bd
       -0.07921729 0.0338177 -0.1318307 -0.08078172
0000f0 22 70 b8 bd af ae 48 3c ae 7c a6 3d 3a ed be 3c
       -0.09005763 0.012248679 0.081292495 0.023306478
000100 90 06 1b 3c 36 73 ec bd 55 ea 98 bd 87 54 1e bd
       0.009462014 -0.11545412 -0.0746657 -0.03865483
000110 83 1e 58 3c c9 95 f6 bd 34 93 82 be 67 b8 df bc
       0.013190868 -0.12040288 -0.25502932 -0.02730961
000120 c3 44 23 3a 7b 0d 97 be d9 7a eb bc cf 44 95 bd
       0.0006228203 -0.29502472 -0.028745102 -0.07288515
000130 be 76 4c bd ea 6a 95 be 36 08 fb bc 7e ea f9 bc
       -0.04991793 -0.2918313 -0.030643564 -0.030507322
000140 5e d8 70 3e 73 1f 1b 3d 5f a8 c7 bd d8 08 5d be
       0.23520038 0.03787179 -0.09748911 -0.21585405
000150 a1 69 7c 3d e9 98 8b bd a6 fd 6a be 9c 0f f5 bc
       0.061624173 -0.06816275 -0.22948322 -0.02991467
000160 99 db f3 3c d8 99 a3 bd 9a 85 97 bd f3 1b d4 3c
       0.029767798 -0.07988328 -0.07398529 0.025892233
000170 a4 5b 8b bd 82 45 f7 bd d4 77 e0 bc 84 ec 8c 3b
       -0.068045884 -0.120738044 -0.027400889 0.004300656
000180 25 d9 f9 bd 90 e4 88 bd 2c 70 cd bd d4 66 d8 bb
       -0.1219962 -0.0668422 -0.10031161 -0.006604055
000190 b5 73 55 3b 3a f1 97 bd c5 7c 58 bd fa 79 9f bc
       0.0032570187 -0.07419057 -0.052853364 -0.019467343
0001a0 ce bc 0d 3d a7 b4 18 3d 23 b4 43 bc 92 b9 60 bd
       0.034603886 0.03728166 -0.011944803 -0.054864474
0001b0 ce 44 e5 bd 71 c5 29 bd 12 e2 3c be 06 4c 56 3d
       -0.11194764 -0.04144806 -0.18445614 0.052318595
0001c0 a6 83 5a bc d0 f4 a6 bd 4e c9 13 be 5d 8e c4 bd
       -0.0133370515 -0.08152163 -0.1443226 -0.09597466
0001d0 19 c9 21 3f 1a 18 a1 be 10 50 7f bc 71 66 8a bd
       0.63197476 -0.314637 -0.015583053 -0.067578204
0001e0 da b3 8c bd b3 05 ed bd 20 8e 49 bd 2a a9 7d bd
       -0.068702415 -0.11573353 -0.049207807 -0.061928906
0001f0 47 53 22 3d 64 72 9b 3d 86 5b d2 bb d9 99 03 be
       0.0396302 0.07590178 -0.006419602 -0.12851657
000200 3f 34 8c bd 45 38 4f bd 1a d1 88 bd 04 a3 c1 bd
       -0.06845903 -0.050590772 -0.06680508 -0.09454921
000210 de 38 b4 bd d5 5e b0 3d a6 48 8e be 5e f1 3a bd
       -0.08799909 0.08611838 -0.277898 -0.045640342
000220 90 a2 f2 bd f6 eb cd 3d d7 f8 e5 bc 09 f4 d1 3e
       -0.118474126 0.100547716 -0.028072758 0.41006497
000230 92 7e 05 be 44 45 ed bc f6 f2 e6 bc 6a d2 39 bc
       -0.13036564 -0.028963692 -0.028192025 -0.0113416705
000240 fc b2 ae bb 3a cb 52 bd 9a f6 5f 3e 28 28 8b 3c
       -0.005331395 -0.051463343 0.21871415 0.016986921
000250 cc 7b 3e bd 92 74 e6 3c 93 50 71 3a f4 56 52 3d
       -0.04650478 0.028131757 0.0009205427 0.051352456
000260 53 6a db bd a8 65 5d 3d b5 fa b1 3d 85 88 5e bd
       -0.10713639 0.054052025 0.08690397 -0.054329414
000270 10 ac c0 bc ec f9 44 bd ad cb cc bd 60 a6 96 3c
       -0.023519546 -0.048089907 -0.099997856 0.01838988
000280 a4 69 0a be 4e 7a 88 3e fd 1d 29 be 6e 72 58 3c
       -0.13516861 0.2665581 -0.16515346 0.013210876
000290 a3 be d1 bd 31 c4 07 be 62 13 8d bd 8a 9b 3c bc
       -0.10241439 -0.13258435 -0.068884626 -0.011511693
0002a0 b1 b1 0a bd 9d 87 ab bd a0 f8 ee 38 5b c5 7c 3e
       -0.033860866 -0.083754756 0.000113950344 0.2468466
0002b0 9b 36 bc 3d 31 0b 18 bd 55 73 b7 3c 3f f6 6e bd
       0.09190103 -0.037120048 0.022393862 -0.058340307
0002c0 13 51 c4 3d 18 25 0b 3c 9e 22 32 bb 23 30 f5 bd
       0.09585776 0.008492731 -0.0027181278 -0.11972072
0002d0 e1 36 54 3c f4 1c 50 bd 5c ca b1 3b 6c d0 5a bd
       0.012952537 -0.05080886 0.0054257344 -0.053421423
0002e0 e3 8c 13 be dc 84 fa bd 4b a0 40 3d e0 c3 87 bd
       -0.14409213 -0.12232372 0.047027867 -0.06629157
0002f0 ab af 7f bd a7 1d 2b be 73 ad 77 bd c6 89 18 bd
       -0.06242339 -0.1671053 -0.06046815 -0.037240766
000300 06 cf 04 3d 1b 6f c0 b9 86 b0 1c be 66 60 92 bd
       0.032423995 -0.00036703874 -0.15301713 -0.07147293
000310 9d f8 0f 3d 42 16 3d bd 26 bc 17 bd 0d c2 b0 bc
       0.035149205 -0.046163805 -0.037044667 -0.021576906
000320 ed 49 c0 bd f3 14 e1 bd 1b 2f 9e 3d 87 44 cb bd
       -0.093891 -0.10990324 0.077238284 -0.0992518
000330 27 02 69 be 49 da bb bd 2a 2a 1e bd 94 d5 c6 3d
       -0.22754727 -0.09172494 -0.03861443 0.097087055
000340 76 9d 76 bd 85 d6 27 3d fa 32 de 3b ae f3 8e bd
       -0.06020876 0.040976066 0.006780979 -0.06980072
000350 21 a1 7e be f2 c1 21 3d b4 ba 11 bd 81 0f 23 be
       -0.24866153 0.0394916 -0.035578445 -0.15923883
000360 b3 2e b2 bd c0 9e 76 bc 71 c6 29 3d 8a 83 d9 bd
       -0.087003134 -0.015052497 0.041449014 -0.10620792
000370 f7 ff cf bd aa a9 6e bd 80 cb 9a bd cd 4d 0e bd
       -0.10156243 -0.058267273 -0.07558346 -0.034742165
000380 d7 9d 58 3d 52 6a 9d 3e 58 9c c5 3a 9d 8f 8e 3b
       0.052884903 0.30745178 0.0015076501 0.004350616
000390 63 76 aa bd b7 33 80 3c 49 6e 4e bd c9 ee f4 bd
       -0.08323362 0.01564966 -0.050398145 -0.11959607
0003a0 2e ad a4 3d c7 d7 bc bd ca 59 02 be ad 82 a8 bd
       0.08040844 -0.09220844 -0.12729564 -0.082280494
0003b0 12 de 23 bd 76 5d 00 bc d0 78 3d 3d e4 39 76 3d
       -0.040006705 -0.007834783 0.046257794 0.060113803
0003c0 85 32 9a bd 96 89 35 3c 12 ca ca 3d 22 a1 93 bd
       -0.07529167 0.011080166 0.09901823 -0.07208468
0003d0 35 01 28 be 7b ad f8 bd 5a a8 d3 bc 79 8b 49 3d
       -0.1640671 -0.12142464 -0.025837112 0.049205277
0003e0 4c 22 07 bd 26 a0 01 bd 05 10 d2 3b 8d ea 90 3d
       -0.032991692 -0.03164687 0.006410601 0.07075987
0003f0 1e fe 64 bc 0a c3 91 bb f8 53 ac bd ea fb 90 be
       -0.013976602 -0.0044482993 -0.08414453 -0.28317195

l2.bias f4 [300]
000000 1b 48 7a 3c 4e 7e 9a bc 05 e2 b6 bb 3e c4 97 3e
       0.01527598 -0.018859055 -0.005581143 0.29641908
000010 1a 40 94 3e 79 b2 25 bd a8 72 02 3c 93 e2 49 bd
       0.28955156 -0.040453408 0.0079619065 -0.049288344
000020 ab ed df bd c4 05 e8 3d a9 d9 be 3e cc 6b ce 3c
       -0.109340034 0.11329225 0.37275437 0.025197886
000030 86 a2 12 bc c6 ee 87 3d 67 fd af 3d b3 31 1a 3d
       -0.008949881 0.06637339 0.085932545 0.037645053
000040 59 ee 86 3c 8f 25 b7 3c 47 94 24 bd b3 5a 78 3e
       0.016471075 0.022356777 -0.04018047 0.24253349
000050 33 62 b7 bc 1c d1 39 3a 56 45 80 bc 1a 4a 66 ba
       -0.022385692 0.00070883497 -0.015658062 -0.00087848457
000060 23 ff be 3c 19 7a 31 3c ca 58 54 bd 6a aa 73 3b
       0.023315018 0.010832333 -0.05184249 0.0037180432
000070 e5 4a 09 3d 3d a6 2f 3c b6 6c 94 bb 71 8b ff 3d
       0.03351869 0.010720787 -0.004529561 0.12477768
000080 03 6d 28 bd 2c 0b 5b 3d 8d 00 bc 3c 64 f2 f5 3c
       -0.041119587 0.05347745 0.022949481 0.030022807
000090 ab 30 26 3e 81 8a 18 3d 84 78 ad 3c 48 68 9e bd
       0.16229503 0.037241463 0.02117563 -0.07734734
0000a0 32 34 bf 3d 2e e5 53 bd b1 38 12 bd 34 61 9f 3c
       0.09336127 -0.051732235 -0.035698596 0.01945553
0000b0 31 86 9a bc fb b3 1e 3d 4f 2a 9e 3c 7f 0b 22 bd
       -0.018862816 0.03874586 0.019307284 -0.039561745
0000c0 11 40 d9 3c 90 be ba 3c a7 a9 2b bd ee 22 cb bc
       0.026519807 0.022795945 -0.04190984 -0.02479693
0000d0 39 3d bc 3d d6 b0 99 3d 7d 41 09 3a 69 5c e0 bc
       0.09191365 0.07504432 0.0005235894 -0.027387815
0000e0 a2 ad 1b bc 3d 06 08 bd 3d 5c 0e 3d b3 dc 29 bd
       -0.0095018465 -0.033209074 0.034755934 -0.04147024
0000f0 71 97 e5 bb 5b 4c 5c bd 24 37 c6 bc 15 8c 4b bc
       -0.0070065786 -0.053783756 -0.024196215 -0.012423535
000100 f4 3e 2f 3c df 66 76 bd 15 54 98 bc cc 7b 83 3d
       0.010696162 -0.0601567 -0.018594781 0.06420097
000110 fa 61 e3 bc 50 ab a6 bc 29 c8 32 3d ec 9d 43 3d
       -0.02775668 -0.02034536 0.04364792 0.047758028
000120 aa bd 63 bd 85 8d 56 bd 42 59 43 bd c7 b5 a4 3e
       -0.0556008 -0.052381057 -0.047692545 0.32169935
000130 59 5b eb 3d 64 64 33 bc 89 e9 ad 3d 8b 0b 84 3c
       0.114920326 -0.010949228 0.08491809 0.016118785
000140 1d 1f d1 bc 0d 85 17 3d dd 48 e9 bb 55 eb 01 bd
       -0.025527531 0.03699212 -0.0071192817 -0.03171857
000150 09 ad 8f 3d a5 03 1b bd 9a 1c 58 3e b1 f1 d6 3c
       0.07015426 -0.037845273 0.2110466 0.026238294
000160 99 a7 91 3c 17 2a 53 bd cc fb 45 3e a7 7b 6a 3d
       0.017780112 -0.051553812 0.19334334 0.05724683
000170 a3 bc c9 bc 9c cf 11 3d 4f 33 20 3d 90 6e 0e bd
       -0.024626082 0.035598382 0.03911143 -0.03477341
000180 9c 8a 9a 3d 1f a8 76 3e a0 57 aa 3e da 70 5c bb
       0.07545969 0.2408757 0.33269978 -0.00336366
000190 92 a6 e0 bc bc d9 24 bc 26 86 f0 3c d4 c3 b1 3c
       -0.027423177 -0.010061678 0.029360842 0.021699823
0001a0 02 57 5a bd 4d d3 0f 3d 45 06 11 3d 43 f5 1c 3d
       -0.053305633 0.03511362 0.03540637 0.038319837
0001b0 2e f0 08 3d ed 65 91 bd 35 3f 06 3d 4a 61 a1 bd
       0.03343218 -0.07099519 0.032775123 -0.078798845
0001c0 5a 2b 58 bd ff 17 43 3e 42 ce 9b bd 22 59 75 bc
       -0.05277572 0.19052123 -0.076077 -0.014974864
0001d0 9b 69 81 3c 68 66 cb 3c 0e f5 98 3d 57 94 f7 3a
       0.015797427 0.024829105 0.074686155 0.0018888813
0001e0 25 38 e7 bb 14 9b 3e 3b 23 34 7c bc 9b 96 45 bd
       -0.0070562535 0.0029084133 -0.01539329 -0.04823933
0001f0 e8 44 87 3e a1 46 9b bd ef 4b bb bc e1 25 5f bd
       0.2641976 -0.07581831 -0.022863356 -0.054479484
000200 41 48 ac bb 5a ab 0a 3d 70 9f 00 bc e0 bb 70 3e
       -0.005257637 0.03385482 -0.007850513 0.23509169
000210 3f 56 7b 3d d6 6f 03 3d f4 50 a9 3d aa 7b 19 bd
       0.061361548 0.032089077 0.08267394 -0.03747145
000220 55 14 8a bd ac 1b 69 bd 9d 2c 68 bd 68 dc 0d bd
       -0.06742159 -0.056911156 -0.05668317 -0.034634024
000230 e2 cb 93 3c 02 6a 3a 3c 04 eb a2 3e b4 eb 20 bd
       0.018041555 0.011377813 0.31819928 -0.039287284
000240 b8 46 f3 3d 9e a1 15 bd d7 04 a9 3d dc b9 f4 bc
       0.11878723 -0.036531083 0.08252876 -0.02987378
000250 be 09 20 bc ae aa da bc be ac 2c 3e cc 42 fd bb
       -0.009767948 -0.026692715 0.16862771 -0.00772891
000260 92 a8 8f 3e 64 aa 68 3c 1b d9 fb bc 87 23 7b 3e
       0.28058296 0.014200781 -0.030743172 0.24525271
000270 59 2b 33 3c 23 84 c9 bc a9 b8 7b 3c a7 9a 08 3d
       0.010935628 -0.02459914 0.015363851 0.033350613
000280 ff 31 0a 3d 34 f9 1c 3b 64 07 c6 39 e9 a7 f8 3c
       0.033739086 0.0023952248 0.0003777101 0.030353503
000290 35 62 23 3d 88 b6 40 bd 3d a6 1d 3e 20 8b 04 bd
       0.03988858 -0.047049075 0.15395446 -0.032359242
0002a0 c7 f1 06 bd d0 e3 52 3d 4a 5d 46 bb a0 3b 39 bd
       -0.03294542 0.05148679 -0.0030268007 -0.04522288
0002b0 45 18 07 3d 42 dc 65 bd 4e df 81 3c 84 0d 18 3c
       0.03298213 -0.056118257 0.01585355 0.009280566
0002c0 bf aa 89 3e 18 22 80 bd 79 44 73 3c 80 aa bc 3e
       0.2688808 -0.06256503 0.014847868 0.3684883
0002d0 7e b8 09 3d 7b 44 31 bd a0 42 12 be 75 3f 99 3e
       0.03362321 -0.0432782 -0.14283228 0.29931226
0002e0 73 a5 c7 bc 02 dc d0 3c 5a 3a 50 bd c6 4c ff 3c
       -0.024370885 0.025495533 -0.0508369 0.031164538
0002f0 99 6a 6b bd 66 ed c1 3b d2 ae 50 bb 00 46 c4 bb
       -0.057474706 0.0059181927 -0.0031842482 -0.00598979
000300 df 4c ba bb 7b d2 1f bd 65 2a 6f bc 04 99 9c bb
       -0.0056854333 -0.03901909 -0.01459751 -0.004778983
000310 f6 a9 0c bd dd 5e bf 3d 1c 1e df bc 15 fc 28 bd
       -0.034341775 0.093442656 -0.027236037 -0.04125603
000320 07 14 38 3e e0 09 c9 3c 9a 33 ec bc 40 a1 f0 3a
       0.1797639 0.024540842 -0.0288332 0.0018358603
000330 92 d2 aa ba fa ea ba bb a5 36 84 bd 67 d5 c3 bc
       -0.0013032726 -0.005704281 -0.06455735 -0.02390547
000340 21 b0 ad bd a1 41 e3 3c e7 f3 2d bd d6 22 ed 3a
       -0.084808595 0.027741255 -0.04246893 0.0018092047
000350 55 a9 b2 bd 5a 72 97 3b 2b 12 d2 3c 6f cb 3c bd
       -0.08723704 0.004621786 0.025643429 -0.046092447
000360 7b 35 a6 3c e5 ac b6 3e 44 bd 35 3b 8d 4d a6 bd
       0.020289173 0.35678783 0.002773122 -0.081202604
000370 bb 74 f7 3c 9d 39 aa 3e ee 0f 2b bd b9 a2 c9 3c
       0.030207029 0.3324708 -0.04176324 0.024613725
000380 99 44 7d 3e a5 87 2b 3e a6 64 f5 3c d0 56 91 bc
       0.24733199 0.16750963 0.02995522 -0.01774159
000390 1b a8 95 bc 18 12 c8 3b 30 b2 17 3c 4c 17 87 3e
       -0.018268635 0.0061056726 0.009258792 0.26384962
0003a0 67 11 77 3e 90 e4 91 3d 30 67 9a bc 54 65 2f 3e
       0.24127732 0.07123673 -0.018848032 0.17128497
0003b0 41 4e 8b 3d 96 9e 0f bd 75 7b aa bc 9c 87 55 bd
       0.06802035 -0.03506335 -0.020810822 -0.05213128
0003c0 0d 80 d4 3c 63 3e b8 bc b6 2f 8d 3d 80 be e3 bc
       0.025939966 -0.022490686 0.06893866 -0.027800798
0003d0 fb 40 59 3e 81 f7 1c bd 90 f5 95 3d bd f3 b4 bb
       0.21216194 -0.038321976 0.07322228 -0.00552222
0003e0 49 4e a6 3b 9f 6e c7 3e 04 f2 ee bc 9e 5f 5e 3e
       0.0050752503 0.38951585 -0.029168136 0.21716163
0003f0 5e 97 89 bc f6 58 35 3d 69 36 69 bd 5c 73 d5 bc
       -0.01679581 0.044274293 -0.056936655 -0.026055984

l3.weight f4 [1, 300]
000000 5e 0a 1e bc c2 44 1d 3d 6d ad 30 3d c0 56 41 be
       -0.009646026 0.03839565 0.04313414 -0.18880749
000010 47 cb aa be 5f 61 4c be 33 5c 48 bb c6 1f 93 3c
       -0.33358213 -0.19959019 -0.0030572533 0.017959487
000020 00 a7 5a bc 45 4e 23 3e 3e d6 0e bf 9d f9 3a bb
       -0.01334548 0.15947826 -0.5579566 -0.0028530129
000030 68 4f ac 3b b1 c5 06 be f3 58 60 3c ad 85 9f 3c
       0.0052584894 -0.13161351 0.013693082 0.019472921
000040 9a 5f 11 bc 01 19 86 3c ec 73 a1 3b cf d6 b8 be
       -0.008872891 0.016369345 0.004927149 -0.36101386
000050 f0 ec 1e 3d 37 72 12 be de 2b 41 3c f2 9c 64 3b
       0.03880018 -0.14301382 0.011790244 0.0034883586
000060 8e 9d 38 3d 93 f3 48 3d f3 3e ea bc f0 14 fb 3c
       0.04507213 0.049060415 -0.02859447 0.030649632
000070 b1 ba a2 bb b9 e4 0c bb 39 82 7f b9 49 ca 10 be
       -0.004966103 -0.0021498634 -0.00024367207 -0.14139666
000080 f7 df 1d 3d b5 69 11 3c 17 0c 01 be 19 d3 20 3d
       0.038543668 0.0088753 -0.12602268 0.03926382
000090 68 c8 e1 bd c7 d5 f0 3b a4 7a fe 3b 62 25 70 bd
       -0.110245526 0.007349703 0.0077660847 -0.0586294
0000a0 ba 6d 5c bd 39 d7 25 3d 22 7e 2b 3b fa 10 cd 3c
       -0.05381558 0.040488455 0.002616771 0.02503251
0000b0 de d8 00 3b 5d 58 9f be 37 9c 41 3c c2 2e 0f 3d
       0.0019660513 -0.31122103 0.01181703 0.0349567
0000c0 e4 f6 0d ba 64 99 49 3b 21 38 7d 3c 22 c2 d1 3c
       -0.0005415513 0.0030761594 0.015455277 0.025605265
0000d0 9e d1 28 3f 61 81 0b be 87 0d e9 3c 5d 64 8f 3c
       0.6594485 -0.13623573 0.028448833 0.017503912
0000e0 bd ef 34 3d e6 f8 ed 3b cd c4 ff 3c 27 10 01 3d
       0.044173945 0.007262337 0.031221772 0.031509545
0000f0 94 2e 4a 3d 6c db 4c 3c 02 f4 89 3c 8c db 13 39
       0.049360827 0.012503486 0.016839985 0.000141008
000100 61 cb b8 3c 85 2c 2f 3d 27 45 8b bb 92 e7 1e be
       0.022557916 0.042767067 -0.004250187 -0.15518025
000110 f4 02 f7 bb bd ba 7d 3c 6e bf a2 be db 4e 99 bf
       -0.007538194 0.015486416 -0.31786674 -1.197719
000120 30 f5 3b 3d 63 ff bc 3c 75 23 02 3b 5e ea f0 be
       0.045888126 0.023070997 0.001985756 -0.47053808
000130 66 42 91 bb 23 14 09 be 78 d6 2b be 78 46 ac bb
       -0.004432964 -0.13386588 -0.16781032 -0.005257424
000140 47 e8 80 bc f2 5e 86 3a 2d 57 f2 3c 6e bd 1c 3c
       -0.015735758 0.0010251685 0.029582584 0.009566648
000150 e0 c6 96 be 5f 5b e1 3c 4b 96 e6 be 03 88 45 3d
       -0.29448605 0.02750939 -0.4503654 0.048225414
000160 94 4c 3e 3b ce 63 dd 3a 9d b0 76 bc 71 6a da bc
       0.0029037343 0.0016890706 -0.015056756 -0.026662083
000170 e4 37 00 3c 2e 36 da 3a 6e 99 4a 3d 5f 21 08 3c
       0.007825825 0.0016648227 0.04946273 0.008308738
000180 f9 89 80 bb 14 5d 96 be 9a cc 3a bf 80 b7 3f be
       -0.0039226976 -0.29367888 -0.7296845 -0.18722343
000190 4e f8 a2 3c 50 9b f0 3c 31 6e 2a bb 7d e0 0f 3d
       0.019893792 0.029370934 -0.002600562 0.035126198
0001a0 88 2e 08 3d 63 96 49 3d 7c 34 39 3d a6 f2 46 3d
       0.0332475 0.049215686 0.04521607 0.04857125
0001b0 3a 27 08 be 84 e5 0a bd 80 fc 4f 3c 5a 05 36 bc
       -0.13296214 -0.03391029 0.012694478 -0.011109674
0001c0 27 bb c0 3c 95 c9 a0 bd 70 4a 6b 3d d5 1f 9d bc
       0.023526741 -0.07850949 0.057444036 -0.019180218
0001d0 eb 96 cf 3b 93 a8 36 3b d4 97 46 bf d8 31 01 3a
       0.0063351295 0.0027871474 -0.7757542 0.0004928387
0001e0 30 51 cd 3c 5b 94 28 ba bb d5 b2 3c 43 78 4a bd
       0.025063127 -0.0006430798 0.02183043 -0.049431097
0001f0 3f 39 8e be 5b ff 59 3b 21 9b ae 3b fa 9b ad 3b
       -0.2777805 0.0033263776 0.0053285514 0.005298135
000200 51 e3 99 ba 1c e1 d7 bd 32 95 c6 3c ed 32 60 be
       -0.0011740719 -0.10540983 0.024241064 -0.21894427
000210 ba 08 3d be 59 18 35 3d f2 89 3c be 94 a9 23 bd
       -0.1846036 0.044212673 -0.18411997 -0.039956644
000220 84 75 cf 3b 71 86 93 ba 18 c8 17 3d e0 6c 09 3d
       0.0063311476 -0.0011255277 0.03705606 0.033551097
000230 52 03 32 3d bc 4e cc ba a7 85 84 be cc 87 03 3d
       0.043460198 -0.001558743 -0.2588322 0.032111928
000240 f3 f7 93 bd 23 f7 68 3c a5 81 96 be 15 da f8 bb
       -0.07225027 0.014219078 -0.29395786 -0.007594357
000250 39 bc 2a 3c 59 22 1f 3d 87 87 84 be 0f fd cd bd
       0.010420852 0.038851116 -0.2588465 -0.10058033
000260 70 f4 67 be 70 b7 e7 39 b8 1d 15 3d 74 b8 49 bd
       -0.2265184 0.00044196425 0.036405295 -0.049248174
000270 2a 83 b7 3c 95 02 aa 3c 79 e5 22 3d 8a 85 d9 3b
       0.022401411 0.020753184 0.039769623 0.0066382335
000280 b4 9a bc 3c 6b 69 08 3d 73 f0 ec 3b 2e 00 b3 3c
       0.023022987 0.03330366 0.007230812 0.021850672
000290 09 de 3c 3b 1f 56 17 3d be e0 01 bf 0c 44 2a 3c
       0.0028818867 0.036947366 -0.50733554 0.0103922
0002a0 65 ca 87 3c 9e bc 81 3e 0a 73 8f 3b c6 50 29 3c
       0.016576001 0.25339216 0.0043777274 0.010334199
0002b0 20 8c 52 3d dd a0 65 3c 92 bd a7 bc 61 36 47 3d
       0.051403165 0.014015404 -0.020476136 0.048635844
0002c0 25 d4 af be 3d 14 22 3c 68 63 03 bc a3 a9 18 bf
       -0.3434154 0.0098925205 -0.008019306 -0.59633845
0002d0 46 78 99 3c 8e 28 cb bc ec 11 e6 3c 48 4d c3 be
       0.018734109 -0.024799611 0.028084718 -0.38144898
0002e0 64 85 b8 3c 76 20 27 3c 39 dc b5 3b ab f4 83 bd
       0.022524543 0.01020061 0.005549934 -0.06443151
0002f0 f2 61 4a ba b3 c4 0a 3d ba 4d d2 3c 50 f9 cd 3b
       -0.00077202835 0.033878993 0.025671829 0.006285824
000300 51 b2 a1 be 9e 5c 93 3c 5e b8 e7 3c 15 1f cd 3c
       -0.31581357 0.0179885 0.028286155 0.025039235
000310 76 eb 15 3b 10 d3 c5 bc 85 6a 1a 3d 32 f4 07 3d
       0.0022875941 -0.024148494 0.03769924 0.033191867
000320 eb 8b 96 bf e7 62 ad 3c 75 20 03 be 08 78 2b 3d
       -1.176145 0.021165324 -0.1280535 0.041862518
000330 f4 e4 6e bb d4 1f b5 bb 16 de cb 3b 1e 27 c3 bc
       -0.0036452385 -0.005527476 0.006221543 -0.023822363
000340 a6 96 de 3c 8d 09 9d bc 4f 61 7e bc a0 99 9e bb
       0.027171444 -0.019169593 -0.01552613 -0.004840091
000350 d1 c5 09 3c 1c 0c c7 3c cb 10 04 ba b0 b5 41 3c
       0.0084089795 0.024297766 -0.0005037903 0.011823103
000360 96 c7 cd 3c 89 44 e2 3f 07 08 de bc 56 56 f9 bc
       0.025119584 1.7677165 -0.027103437 -0.030436676
000370 9e a2 1b be 28 17 6e be 1e e9 1e ba 38 8c 21 bc
       -0.15198752 -0.23251021 -0.0006061959 -0.009860091
000380 9a 5d 8d be 3d dc ad bf f1 38 de ba e2 42 af 3c
       -0.27610475 -1.3582836 -0.0016954226 0.021394197
000390 7d 15 19 3c 58 b4 fe 3c e2 e9 ae 3c 43 af fe bd
       0.009343502 0.031091854 0.021351758 -0.12435772
0003a0 3e 49 0e bf a5 35 fa ba 95 8d 82 bb 4c ef a7 bd
       -0.5558051 -0.0019089474 -0.003984163 -0.08199939
0003b0 47 45 42 be 44 b6 b2 3b 16 59 6b be ac 30 eb 3c
       -0.1897174 0.0054538567 -0.22983202 0.028709732
0003c0 79 c6 2f 3c f8 2d 45 3b a9 00 be 3b 82 cf ce 3c
       0.010728472 0.0030087214 0.0057984185 0.025245432
0003d0 31 8c 75 be ab 7e f3 3c ca d8 e0 bd 8f 8d 47 3d
       -0.2397926 0.029723486 -0.10978849 0.048718985
0003e0 2e 53 8d bb cc 93 1b bf 7e 43 1c bb 59 6a 28 be
       -0.0043128943 -0.60772395 -0.002384394 -0.16446818
0003f0 94 d4 a7 3b e2 d9 ba 3b b4 50 8e 3c 77 6d d8 ba
       0.005121777 0.005702243 0.017372467 -0.0016512115
